DFY_project/internal/model_load_lstm.pth (torch, 213317 bytes, 9 tensors)

lstm.weight_ih_l0 f4 [256, 8]
000000 c1 51 01 3d 66 ac d7 bc 54 73 d2 3d 93 f4 2c 3d
       0.031572107 -0.026327323 0.10275903 0.04222543
000010 ce 9a d2 bd 8d 1a 54 3d 8c 0e ed bb ce 2a 6d 3c
       -0.10283433 0.051783133 -0.0072344 0.014475537
000020 76 31 c4 3d 74 33 b3 3d ba 2a f1 3d 6f ed 87 3d
       0.095797464 0.08750048 0.117757276 0.06637084
000030 2d f6 c7 3d 85 e6 6d bd df b3 e2 3c 28 d1 6e bd
       0.09763751 -0.05808117 0.02767366 -0.058304936
000040 6c ff 87 bc d1 6a 88 3d e6 1f a0 3d 8a 94 f8 3d
       -0.016601287 0.066609986 0.07818584 0.121377066
000050 23 65 fc 3c 34 c5 15 3d 55 ef 09 bd ad e0 94 3d
       0.030809944 0.03656502 -0.03367551 0.07269416
000060 f9 70 ba bd 89 c5 77 bd 00 d2 a5 3a 6c f8 e0 bd
       -0.09103579 -0.06049112 0.0012651086 -0.10984883
000070 c8 62 c4 bd 2f 00 71 3d 32 19 f0 bc e2 5e 6d 3d
       -0.095891535 0.058838066 -0.029308889 0.057951815
000080 f9 46 24 3d cd 26 ae bc d0 76 19 bc f9 56 8a bd
       0.040106747 -0.021258736 -0.009366706 -0.0675487
000090 a3 bb 2f bc 33 b6 7a 3d 5a 22 0c 3e f8 2a 05 3e
       -0.010725888 0.061208915 0.13684979 0.13004673
0000a0 e5 4f 15 3e 51 d5 7c bd 74 1d da 3d 3e fe 8a 3d
       0.14581259 -0.061726872 0.10650149 0.06786774
0000b0 92 67 c4 3d ad fd c9 bc 6a 10 5e 3d 08 bc 9c 3d
       0.09590067 -0.024657095 0.054214872 0.076530516
0000c0 8a 41 ac 3a 8d 28 e7 3d 14 e9 cb 3d e6 9c d8 3d
       0.0013142091 0.11287031 0.099565655 0.10576801
0000d0 26 84 48 3d a5 cc c0 3d b0 11 fe bd cf fb da 3c
       0.04895415 0.09414033 -0.124057174 0.0267314
0000e0 1b e8 2b 3c 4a ce 90 bd 0c e5 a7 bd ca f6 ae bd
       0.01049235 -0.070705965 -0.08197984 -0.08543165
0000f0 d6 4d 08 3e 35 01 ee 3c ff b4 41 bd ed 65 f7 3d
       0.13310942 0.02905331 -0.047291752 0.12079988
000100 13 7f ae 3c 69 fc a8 bd c4 3d 06 bd 5c 0d af 3b
       0.021300828 -0.082512684 -0.032773748 0.0053421687
000110 9c ce a8 bc 78 ac 56 bd d2 ad d1 bb d2 07 ff bd
       -0.020606332 -0.052410573 -0.006398895 -0.124526635
000120 d4 81 cf 3d d7 c9 8d bd 80 9d 2a 3b 05 7c 16 3d
       0.101321846 -0.069232635 0.0026033819 0.036739368
000130 bd 34 96 bd fc cc 93 3d 5d f3 ca 3d f2 7c ae bd
       -0.07334278 0.07216832 0.09909699 -0.08519925
000140 6b 8e 08 3e 45 fd 32 bd 5e 0d ea bd 17 82 96 bd
       0.13335578 -0.043698568 -0.11428331 -0.073490314
000150 c6 14 2d 3c d9 97 5a bd 29 09 16 3d 02 44 d1 bd
       0.010564035 -0.05336747 0.03662983 -0.102180496
000160 a5 1d c7 3d f9 19 da bc 62 2e b2 bd 46 b3 07 3e
       0.09722451 -0.026623713 -0.08700253 0.13251981
000170 9f 6d 2f 39 f7 91 b7 3d a3 87 aa bd 31 aa cb bd
       0.00016730138 0.089633875 -0.08326652 -0.09944571
000180 38 cb c9 bd 31 27 46 3d d0 72 7e 3d 21 37 88 3d
       -0.09853214 0.04837722 0.062121212 0.0665114
000190 8e 6a b0 3d 67 41 58 bd 68 63 48 3d 01 b9 3a bd
       0.08614074 -0.052796748 0.048922926 -0.04558659
0001a0 c1 df 01 3e 76 e6 99 3b 1c 76 d4 3d 41 82 ae 3d
       0.12683012 0.0046966625 0.1037409 0.08520938
0001b0 93 d8 e5 bd e7 22 69 3c 22 90 f8 3c a7 2a cc bb
       -0.11222949 0.014229513 0.030342165 -0.0062306705
0001c0 c1 ca 80 3d c5 b1 bd 3d 40 3f b8 3b 69 48 49 3b
       0.06288672 0.092624225 0.0056227744 0.0030713326
0001d0 20 c8 9b bc d7 73 1f 3c ef 0d c2 bc 05 27 02 be
       -0.019016325 0.009732208 -0.023688285 -0.12710197
0001e0 12 22 21 3d f2 ac ec 3d 00 d0 f8 bc 7e 1f 97 bd
       0.039339133 0.11556424 -0.03037262 -0.073790535
0001f0 1e f1 37 3c da 60 b1 bc 74 78 a9 bd fe fc bf bc
       0.01122692 -0.021652628 -0.08274928 -0.023436066
000200 98 95 4e 3d 88 15 ef bd 2e 9f 94 bd ba df 43 bd
       0.050435632 -0.11674029 -0.072569236 -0.047820784
000210 e3 9d eb 3a ca ae 43 3c b8 3d 7a 3d 9a d5 ef bd
       0.0017976131 0.011943528 0.061094016 -0.11710663
000220 c4 1e 94 3c b3 d7 92 b9 c4 a6 f6 3d f3 83 50 3d
       0.018081076 -0.00028007998 0.12043527 0.050907087
000230 a2 c3 a8 bd 48 be f7 3a c4 f9 96 3d 26 10 9b bd
       -0.08240439 0.0018901313 0.07371858 -0.075714394
000240 56 d6 91 3d 4b a9 ba 3d 4a 57 ad 3d 8d a3 a9 bc
       0.071209595 0.09114321 0.08463915 -0.02070787
000250 b8 22 d3 bd 3a 89 9c bd 37 82 db 3d cb dc 4c 3d
       -0.103093565 -0.076433614 0.10718196 0.050015252
000260 13 fe cb 3d e0 2e e6 bb d8 5a bb 3d e3 13 a1 bd
       0.0996057 -0.007024631 0.091481864 -0.07865121
000270 06 27 23 3d a3 8d b4 3d 50 ba 8a 3c b2 58 b6 3d
       0.039832138 0.088160776 0.016934544 0.08903636
000280 ba ef 42 3d a0 a4 45 bd c6 31 c1 3d 94 42 c8 bb
       0.047591902 -0.0482527 0.09433322 -0.0061114524
000290 77 96 7c 3d 7f 33 30 3d 16 79 4c 3d 3e 1a b5 3c
       0.061666932 0.04301786 0.049920164 0.02210724
0002a0 09 7e 9e bb a0 ee f1 bc 04 fe dc bd de 04 32 bd
       -0.004836802 -0.02953273 -0.10790637 -0.043461673
0002b0 5c f6 f1 3d 99 94 ae 3d bf 33 59 3d 55 9c f5 3d
       0.118145674 0.085244365 0.053027865 0.119927086
0002c0 4b 93 73 3a 04 6f c0 bd 7e 5f 88 3d c7 8d 5a 3c
       0.0009291663 -0.093961746 0.06658839 0.013339466
0002d0 60 f5 8d 3d e5 49 d2 bd 6f 6a 48 3d a1 cd ce 3c
       0.06931567 -0.102680005 0.048929628 0.025244536
0002e0 20 71 a6 3d cb 40 0d bc 54 ac 3d 3d 4b 35 89 3d
       0.08127046 -0.008621405 0.046306923 0.06699618
0002f0 af 19 9a 3c ca ba 00 3d aa f7 cd 3d 33 2c b3 bd
       0.018811075 0.031428136 0.10057004 -0.08748665
000300 2b 9e 07 3e e8 7b 90 3d c4 1d f3 bd a3 b6 db 3d
       0.1324393 0.07054883 -0.11870912 0.107281946
000310 7a 56 53 3d cd ab 9b 3d 27 3e ef 3d 5f ae b1 3d
       0.051596142 0.07601128 0.116817765 0.08675837
000320 3f 29 2f 3c 4c 97 99 bd 22 d8 a7 3d ad eb b3 bd
       0.010690986 -0.07499561 0.08195521 -0.08785186
000330 8a f1 f8 bd c7 ae 84 3d 61 ae 28 3d e4 f7 f9 bd
       -0.12155445 0.06478649 0.041181926 -0.122054845
000340 f4 1f 65 3c 07 f5 85 3d 80 68 d4 bc 5f 39 b4 bd
       0.013984669 0.06540876 -0.025928736 -0.08800005
000350 0f 33 35 bd e6 5a 1c 3c 73 5d 72 3d c8 40 60 3b
       -0.044238146 0.009543156 0.05917115 0.00342183
000360 ff 75 05 bd 40 61 a1 3d 48 d1 90 3c 2c b1 03 3e
       -0.032583233 0.07879877 0.017677918 0.12860554
000370 23 85 62 bc 2c 69 53 3d 17 f3 da bd 34 56 9d bb
       -0.013825688 0.05161397 -0.10690897 -0.004801536
000380 e8 a5 2b 3d aa ab a7 bd fc 38 01 3d 13 8b 9f bd
       0.041906267 -0.08187039 0.031548485 -0.07790198
000390 80 56 de 3d a9 f4 c3 3d 7d 92 af 3c a1 8c 33 3d
       0.10856342 0.095681496 0.021432156 0.043835286
0003a0 7f 87 cc bd 92 32 e0 bd 90 eb 5b 3c ed 17 11 3d
       -0.09986781 -0.109471455 0.013422862 0.035423208
0003b0 68 91 0b 3d 14 d5 a1 bd a1 e4 8b bd 49 c1 de 3a
       0.034074217 -0.079019696 -0.06830717 0.0016994859
0003c0 0a 1f 87 bd 42 06 6c bd b0 92 f2 3c 2d 04 d6 bd
       -0.06597717 -0.057623155 0.029610962 -0.10450015
0003d0 af 04 8e 3d 02 9f fe bd 29 75 b2 3c cc 92 24 3d
       0.06934487 -0.12432672 0.021784382 0.04017906
0003e0 ac 35 f9 bc 63 5f 8f bd 92 06 c5 bd 47 90 42 bd
       -0.0304211 -0.070006154 -0.09620394 -0.047500875
0003f0 d8 29 98 3d d9 22 8d bd 8d 43 27 bd f4 67 28 bd
       0.07429856 -0.06891412 -0.040835906 -0.041114762

lstm.weight_hh_l0 f4 [256, 64]
000000 ed 6b 6d 3d 2b f3 8a 3d 0c 17 61 3d de bd df bc
       0.057964254 0.06784662 0.05495362 -0.027312215
000010 52 7d a1 3c 29 f7 c6 bd 25 6c 68 3d 7d 45 6a 3d
       0.019713078 -0.09715111 0.05674376 0.057195175
000020 9f b2 45 3d fb 7b 09 3e fd 4e df 3c ff 92 9d 3d
       0.04826605 0.13426201 0.027259344 0.07694053
000030 8a f0 06 bc 7e 6a 3b 3d 68 94 73 bd 26 25 0f 3d
       -0.00823606 0.045755856 -0.059467703 0.034947537
000040 30 1c a2 3d 90 ad 75 3c bf 98 1e 3d e3 43 c4 bd
       0.079155326 0.014994994 0.03871989 -0.09583261
000050 a9 77 4a bd eb d1 b3 bd a1 50 24 3d cf f7 2f bd
       -0.049430523 -0.08780273 0.040115956 -0.042960938
000060 10 14 b5 3d 24 42 5d bd fd 0d 91 bd 25 c5 a9 bd
       0.08841717 -0.054018155 -0.07082746 -0.082895555
000070 03 91 4f 3d 1d 12 c0 bd 91 7a ab bd fb 28 3a bc
       0.050675403 -0.09378455 -0.08372987 -0.01136231
000080 7d 54 58 bd 45 b5 a4 bc 8b 86 2f bc 56 44 e3 3c
       -0.05281495 -0.020105967 -0.01071323 0.027742546
000090 29 06 17 bd 0d 90 ab bd 4b 71 af bd fe bf 9f 3d
       -0.03687111 -0.08377085 -0.08566531 0.078002915
0000a0 fe 09 24 39 2b 84 ab 3d 07 e6 cc bd 63 16 c8 3d
       0.00015643981 0.083748184 -0.10004812 0.09769895
0000b0 a2 34 02 bd 10 63 ea bd 71 6b 50 bc 63 a2 bc bd
       -0.031788476 -0.11444676 -0.0127209285 -0.0921066
0000c0 e6 e7 ad 3d f4 60 36 bc df 27 3a 3d e6 c3 ed bd
       0.08491497 -0.011131514 0.04544818 -0.1160963
0000d0 7e 67 94 bb 0a 37 81 3d 6b f4 21 3c 80 c4 04 3e
       -0.004528939 0.06309326 0.009884934 0.12965584
0000e0 ee 8a 1d bd cc 66 e0 bd a4 26 6f 3d fa 54 8c bb
       -0.03846257 -0.10957107 0.05838646 -0.004282591
0000f0 e4 33 cd bd fb 01 af bc 44 53 2b bc f3 d1 e9 bd
       -0.10019663 -0.021363249 -0.010456864 -0.11416998
000100 a3 3b ff bc 0c 9e ef 3d d8 6d cb bc 7b 47 9c bd
       -0.031156367 0.11700067 -0.024832651 -0.07630821
000110 f2 e9 64 bc 33 96 cc bd 16 b4 86 3d 03 c5 95 bc
       -0.0139717925 -0.09989586 0.065773174 -0.01828242
000120 31 4d f9 ba 43 77 88 bd 25 56 e9 3c e3 cf 92 bd
       -0.0019020197 -0.06663372 0.02848346 -0.071685575
000130 14 e9 ba 3d 00 36 b2 bd 63 87 a6 bd 86 06 ca 3d
       0.091264874 -0.08701706 -0.08131292 0.098645255
000140 e2 4a df 3d 11 09 fd 3d 17 39 49 3d 96 20 7c 3d
       0.10902955 0.12355245 0.04912671 0.061554514
000150 c3 c8 06 3d e6 41 a6 bd 0d f9 dc bd 51 66 be 3c
       0.032906305 -0.08118038 -0.1078969 0.023242148
000160 fb 61 b3 3c 0b 68 8a bd 72 f1 87 bc 2b 8c 61 3d
       0.021897307 -0.06758126 -0.016594622 0.055065315
000170 f4 a1 a7 3d bb 0a ee 3d 05 6b a6 3d 39 4e 88 3d
       0.08185187 0.116231404 0.08125881 0.06655545
000180 57 74 28 3c 29 00 8c 3d 89 6a 83 3d 69 8e 36 bd
       0.010281644 0.06835968 0.06416804 -0.044569407
000190 a4 6c 81 bc 5c 1b e1 bb bc 30 b6 bd 67 d4 df 3d
       -0.015798874 -0.0068697166 -0.08896014 0.109291844
0001a0 d6 e6 09 bd d1 ed 17 bd ed f1 ce bd 0a 8a f1 3d
       -0.033667408 -0.037092034 -0.101047374 0.11793907
0001b0 9c 72 78 bc 90 c6 48 bd 8a 05 0d bd 37 f2 b7 ba
       -0.015164044 -0.04901749 -0.03442911 -0.0014033978
0001c0 91 dd 96 bd db 71 c9 bd 14 52 db 3d 58 f6 ea 3a
       -0.07366479 -0.09836169 0.107090145 0.0017926199
0001d0 53 7c 39 3d a8 b6 80 3d a3 8c a5 bc ab 6e a0 bd
       0.04528458 0.06284839 -0.020208662 -0.07833608
0001e0 73 38 b6 3d 97 08 eb 3d 29 8c 50 3d 73 46 97 3d
       0.088974856 0.11476248 0.050914917 0.07386484
0001f0 cd af 50 3c 10 3f c0 3d a2 13 32 3c 5d 93 c8 bd
       0.012737227 0.09387028 0.010868939 -0.09793732
000200 ea 5f 3b bc 5e 96 6c 3c f8 29 15 bd f8 e6 b1 3c
       -0.011436442 0.014440147 -0.036416978 0.02171658
000210 de f4 f8 bd d8 fb b8 bd 20 9c cf bd 34 1a 62 3d
       -0.1215608 -0.090324104 -0.101372 0.05520077
000220 72 53 de 3d b8 9a 36 bd 12 be a7 3d fa 7a be 3d
       0.1085576 -0.044581145 0.0819055 0.093008
000230 be da 7a 3d 25 3c 8a 3d 3a fc ad 3d b1 3c 9c 3c
       0.061243765 0.06749753 0.08495374 0.019071909
000240 ee 36 a9 bd b0 10 25 3c d8 50 53 3d 58 30 4d bd
       -0.0826243 0.010074779 0.05159077 -0.050094932
000250 2c ae 50 3d c0 23 74 3d f2 dc c1 3d 3c be a1 bd
       0.050947353 0.059604406 0.0946597 -0.078976125
000260 fa 8e 34 bc 7c 09 44 3d cd 59 50 bd 6c 4e 99 bc
       -0.011020416 0.047860608 -0.05086689 -0.018714152
000270 18 79 7c 3d 58 bd 4f bd 18 67 f5 3c 04 ac 39 3d
       0.06163892 -0.05071768 0.029956385 0.045330063
000280 0b 68 e5 3d 4b a6 bb bd 94 b5 b2 3d c3 45 c6 3c
       0.11201485 -0.09162577 0.087260395 0.024203187
000290 e0 d5 f9 3b 90 37 6f bd 98 ad 98 bd 45 03 eb bc
       0.007624373 -0.058402598 -0.074549854 -0.028688082
0002a0 31 ae ab 3d c1 71 88 bd 18 9a 94 bd a8 08 3c bd
       0.08382834 -0.06662322 -0.072559536 -0.045906693
0002b0 4f 0f d5 3d 0f 96 f5 3d be 9d 4d 3d e1 9f a1 bd
       0.104033105 0.11991512 0.050199263 -0.078918226
0002c0 0e b2 80 3d b8 2e fe 3d 08 d7 c4 bc 30 f2 7d bc
       0.06283961 0.12411255 -0.024028316 -0.0154996365
0002d0 e0 c5 10 bc 4c a5 7f 3c ec 71 74 bd e8 a3 04 bc
       -0.00883624 0.015603375 -0.059678957 -0.008095719
0002e0 72 60 89 bd e3 5a 13 bd d6 32 88 bd a3 23 2a bb
       -0.067078486 -0.03597535 -0.06650321 -0.0025961183
0002f0 f4 68 c8 bd 35 09 11 3d d6 b6 7c bd f9 8c c7 3d
       -0.09785643 0.03540917 -0.061697803 0.09743685
000300 cc ec c3 bc 55 ae fc 3d 21 5d f1 3d b0 66 2b bd
       -0.023916624 0.12337939 0.11785341 -0.041845977
000310 cf 49 b9 3c a2 22 54 bd 06 47 99 3d 7e df 5b 3d
       0.022618202 -0.05179084 0.0748425 0.053679936
000320 24 9c df 3b 18 9d 95 3c 06 2e 56 3d 85 24 60 bd
       0.0068240333 0.018263385 0.052289985 -0.054722328
000330 37 eb d4 bb 39 93 a9 bd bc 12 c5 3b 2a a4 8b 3d
       -0.0064977664 -0.082800336 0.006014196 0.06818421
000340 a0 10 99 3b c5 47 b1 3d 3e c9 6e 3c 42 96 8d b9
       0.0046711713 0.08656267 0.014574347 -0.00027005567
000350 8b ff 5f 3d 1c a1 97 3d 66 17 6e bd 33 fe 00 bc
       0.054687064 0.07403776 -0.058127783 -0.007873106
000360 51 ae 89 3c a9 aa 08 3c 82 15 6c bd df 9a 3c bc
       0.016806753 0.00834147 -0.0576377 -0.0115115335
000370 48 19 85 3d fe c5 d2 bd 44 83 c8 bd 72 28 9a bd
       0.06498963 -0.1029167 -0.09790662 -0.075272456
000380 38 d3 45 bd 31 9c 97 bd 6b 03 c4 bd ad 4d a9 3d
       -0.048297137 -0.07402838 -0.095709644 0.082667686
000390 27 61 6e 3d 31 8a 04 3d cd 2e c4 3d c2 2e 8e 3c
       0.05819812 0.032358352 0.09579239 0.01735628
0003a0 7a ef 9f bd 71 49 a5 3d e0 be ed bd a2 42 90 bd
       -0.078093484 0.080706485 -0.11608672 -0.07043959
0003b0 4a b3 ef bd f3 76 b0 bb 3c e8 03 3d 79 bc 32 3d
       -0.117041185 -0.0053852736 0.032203898 0.043636773
0003c0 cf 7a 81 3d 70 2f a7 bc cb 5a ec bd 2c b0 9d 3d
       0.06322252 -0.020408362 -0.11540755 0.07699618
0003d0 26 93 69 3d 99 f1 1c bd 3d 8b 4c bd 45 08 ef 3d
       0.057025097 -0.038316343 -0.049937475 0.11671499
0003e0 65 6a 5c 3d 7a 9f 81 3b 25 f4 90 3c 80 d8 07 3d
       0.053812403 0.0039557787 0.017694542 0.033165455
0003f0 1e 3f 87 bc e4 2b 8a bd ed 0e df bd 9d 0c 86 bd
       -0.016509589 -0.06746653 -0.10891519 -0.065453745

lstm.bias_ih_l0 f4 [256]
000000 77 94 62 3d 33 5a 7d bd 19 c1 7b bd 65 28 ba 3d
       0.05531737 -0.0618536 -0.06146345 0.09089736
000010 fa cf 36 bc 08 8f 20 bc c4 0c dc bd 29 17 1c 3d
       -0.011157984 -0.009799726 -0.10744622 0.038108025
000020 45 a1 ac bd e3 27 b0 3d bd ea 36 3d aa 5b 57 bd
       -0.08429197 0.08601358 0.044657458 -0.052577652
000030 8d e0 5d bd a0 e3 f4 3c 27 45 40 bd 5e 6e 18 bd
       -0.054169226 0.029893696 -0.04694095 -0.03721463
000040 fe cf e7 3d c0 c1 a0 3c 62 0e 29 bd 82 a0 9d 3d
       0.11318968 0.019623637 -0.041273482 0.0769663
000050 51 6e 07 bc fe 44 e9 b9 43 75 0c bd 6d 69 86 3d
       -0.008266048 -0.00044492626 -0.034291517 0.06563077
000060 ae 63 0d 3e 1e 16 6d bd 99 a1 d9 bd 3b 67 01 bd
       0.13807556 -0.05788242 -0.106265254 -0.03159259
000070 9e 0d 04 bd 44 b9 b5 3b 4b 08 47 bc 99 d8 de bd
       -0.03223955 0.005545767 -0.012147973 -0.108811565
000080 ff 5f 32 bd 69 79 d7 3d 92 d4 ea 3d 18 3a 67 bd
       -0.04354858 0.10521204 0.11466326 -0.056451887
000090 a0 e8 e7 3d 54 c7 ef 3d ed 06 86 bd ac 46 9c bd
       0.113236666 0.11707941 -0.0654429 -0.07630667
0000a0 24 62 1a 3c d1 58 da 3d 95 a3 e6 bd d7 70 14 3d
       0.009422813 0.10661472 -0.112616695 0.036240425
0000b0 29 cf 8c bd 2c f3 85 bd 3c 6c c1 bd ad ba 93 bc
       -0.0687545 -0.06540522 -0.09444472 -0.01803335
0000c0 af a4 db 3d e6 9e 25 bc a1 dd 99 3c bc a3 10 3e
       0.1072477 -0.010108685 0.018782439 0.1412496
0000d0 74 fe 85 bd 62 8d e8 3d ab 09 5d bd 53 97 c7 3d
       -0.06542674 0.11355092 -0.0539643 0.0974566
0000e0 24 36 4a 3d 7f 87 6e 3d 21 a4 bc 3d 05 94 68 bd
       0.04936804 0.058234688 0.092109926 -0.056781787
0000f0 d9 a8 a8 3d 8d 7f 9a bd 8c 07 73 ba 4d 02 99 3a
       0.0823533 -0.0754386 -0.0009270839 0.0011673659
000100 14 fb ef 3d af 60 0c 3d eb 0a 9d 3d 4f de 4d bd
       0.11717811 0.034271892 0.07668098 -0.050260838
000110 5a 47 90 bc 81 4c 3d bd 96 78 c5 bd 5e 7e cd 3d
       -0.017612148 -0.046215538 -0.096421406 0.10033868
000120 6a 5d 28 bd ed 24 c8 3b fe ab eb 3c 32 38 74 bd
       -0.04110471 0.0061079175 0.028768536 -0.059623905
000130 d8 4d d5 bd 2b ee a7 bd 68 e1 f2 bd a2 8f cc bd
       -0.10415238 -0.08199724 -0.11859399 -0.09988333
000140 06 ed ce 3d f1 58 12 3c bd 05 85 bd b3 ec b3 bd
       0.101038024 0.008932338 -0.06495235 -0.08785381
000150 f8 a6 02 bd ca 19 f2 bd e4 7a bf 3d e6 9e b5 3c
       -0.031897515 -0.11821325 0.093496114 0.022170495
000160 fd 9a 63 3d 66 33 52 3d 2d 67 20 ba ff ad c0 3d
       0.05556773 0.05131855 -0.000611889 0.09408187
000170 9b 25 fb 3d 52 5b 3e 3d f1 e3 95 3d 4b cc 8e 3d
       0.12263032 0.04647381 0.07318867 0.069725595
000180 2e db 88 3d 4d ec ac 3d 3f 1d a7 3d e0 10 cf bd
       0.0668243 0.08443508 0.08159875 -0.101106405
000190 f7 21 64 bd a0 79 ab bd 62 10 84 3d ca 28 8b bc
       -0.055696454 -0.083728075 0.06448437 -0.016987223
0001a0 90 ff da bd 2d 33 e3 bd a8 00 85 bd ec 31 ff bc
       -0.10693276 -0.110937454 -0.06494266 -0.031151734
0001b0 40 80 a9 bd 99 6e f8 3d e9 1b cb bd 73 96 9d 3d
       -0.08276415 0.1213047 -0.09917433 0.076947115
0001c0 a0 4f 12 bc a7 24 dd bd 32 4c e8 3d 21 b7 e8 3d
       -0.008930117 -0.107980065 0.11342658 0.11363054
0001d0 a6 f4 ba bd b5 a5 de bd d9 30 b4 3d b8 bc 0b 3e
       -0.09128694 -0.1087145 0.087983795 0.13646209
0001e0 33 86 39 3b 15 3b 69 bd 4e 15 32 3d 87 15 1a bb
       0.0028308749 -0.05694111 0.04347735 -0.0023511366
0001f0 62 3b 8e 3d 56 c7 35 bd b2 46 a7 bd fc b6 35 3d
       0.0694492 -0.044379555 -0.08167781 0.04436396
000200 6a 9d fb 3a a4 ea c1 bd 38 35 ef 3d 3f 2c ab 3d
       0.0019196693 -0.09468582 0.116800725 0.08358049
000210 ff 01 9d bd 20 a0 81 bd 9f 08 52 3b 9d e3 5f 3d
       -0.07666396 -0.063293695 0.0032048596 0.05466043
000220 48 c7 ba bd 97 e1 f3 bd 68 50 0c 3d ba 5f 7c 3b
       -0.09120041 -0.11908262 0.03425637 0.0038509206
000230 a0 c3 89 3d 5a 4a 6c 3d 41 b8 bf bd 6c ca 3c bd
       0.06726766 0.057688095 -0.093613155 -0.046091482
000240 62 ae f6 3d c6 90 94 3d b8 a0 4e 3c 7e 6f a3 3b
       0.1204498 0.07254176 0.0126115605 0.004987656
000250 0d 80 91 bd bc 15 a5 bd ec 9b cf bd f9 cd 0f 3d
       -0.07104502 -0.08060786 -0.101371616 0.03510854
000260 78 e6 49 3d c3 10 45 bd 2d 31 97 bd f0 c5 e2 3d
       0.049292058 -0.04811169 -0.073824264 0.1107291
000270 1d 1a b1 bd 75 85 eb bc d7 b9 d9 3d f7 35 55 3d
       -0.08647559 -0.02875016 0.10631149 0.052053418
000280 14 e9 5b 3c d1 cd aa bd dd 1e 36 bd 14 78 5d 3d
       0.013422269 -0.083400376 -0.044463027 0.054069594
000290 ef 8c 96 bd d2 59 24 3d 38 c9 b9 3d 59 c7 88 3d
       -0.073511 0.04012472 0.090715826 0.066786475
0002a0 83 a2 9e 3d 97 19 87 3d 3e 92 74 bd 83 66 00 bc
       0.077458404 0.06596678 -0.05970978 -0.007836941
0002b0 12 69 b7 3d ab 1e 13 3d 1f 47 f9 3d 4c 6b 78 bd
       0.089555874 0.03591792 0.121717684 -0.0606492
0002c0 cc b5 f7 bd 21 4b 89 bd a8 d3 01 3d 61 20 84 bc
       -0.12095222 -0.06703783 0.03169599 -0.01612872
0002d0 63 11 cd 3d 39 20 b1 bb b5 e2 ea 3d 41 5e 3d bd
       0.10013082 -0.0054054526 0.11469022 -0.046232466
0002e0 7d 0c 2e 3d 36 f8 b5 3d b4 63 1f bc a5 cf 13 bd
       0.04249238 0.08885233 -0.009728361 -0.036086697
0002f0 82 4b 39 bc 34 79 37 3d 5e fe 1a 3d 07 30 d8 3c
       -0.011309506 0.044793323 0.03784024 0.026390089
000300 b8 24 46 bd 9c 25 db 3c c7 bc 30 3d d1 fa eb bb
       -0.04837486 0.026751332 0.043148782 -0.0072015305
000310 54 e5 26 3d 63 93 93 bc c4 32 6d bd fa 0d 09 3e
       0.040746048 -0.018014615 -0.057909742 0.13384238
000320 e3 10 99 bd 9e ae 89 bc 49 75 17 3e 80 8c 21 3d
       -0.07473924 -0.016806897 0.14790834 0.039440632
000330 16 d4 a7 bd 4a 42 d5 3d 35 8e a9 bb aa 64 d5 bd
       -0.08194749 0.10413034 -0.005174423 -0.10419591
000340 54 2b a1 bd 0e ab e8 bc 88 56 05 bd bb a3 c4 bd
       -0.07869592 -0.028401878 -0.032553226 -0.096015416
000350 e6 81 dd 3d 74 e8 91 3d 65 2b 5c 3d d1 81 c3 bc
       0.10815792 0.07124415 0.05375232 -0.023865612
000360 7d 4d c7 bd d1 0a b0 3b cb f9 a1 bd 3d 79 ff bc
       -0.097315766 0.005372383 -0.07908972 -0.03118574
000370 78 cf 59 3d 28 d8 16 3d c4 b8 94 bd 31 35 ad bc
       0.053176373 0.036827236 -0.07261804 -0.021143528
000380 d2 36 cb 3d 96 9a 92 3d 6d 7d c3 bd 68 3c db bd
       0.099225655 0.07158391 -0.095454074 -0.10704881
000390 1e 9e fc 39 a8 74 04 be 92 3b 23 3c 29 16 83 bd
       0.00048182992 -0.12935126 0.009962933 -0.06400711
0003a0 a2 1b c4 bd 30 46 85 3d 4a 7d d3 3c 6e b5 00 bc
       -0.09575583 0.06507528 0.025816578 -0.007855756
0003b0 2c 91 c0 3d 40 d7 10 3e 1e 07 0c 3e c4 0d 40 bd
       0.09402689 0.14144611 0.1367459 -0.046888128
0003c0 28 b9 6f bd 9b 02 63 bd 39 d1 67 3d 88 57 14 3d
       -0.058526188 -0.055422407 0.056596015 0.03621629
0003d0 e4 c6 17 3e 57 4c 92 3d 24 b9 09 be 99 58 6e bd
       0.14821965 0.07143467 -0.13449532 -0.058189962
0003e0 67 c0 35 bc 01 10 b0 3d 4b 9e 4f 3b ca ff d9 bc
       -0.011093236 0.085968025 0.0031680043 -0.026611228
0003f0 7b 2d 51 3d c9 44 80 bd 2f 52 f2 bc 8a 0e 0e bd
       0.051068764 -0.0626312 -0.029580204 -0.034681834

lstm.bias_hh_l0 f4 [256]
000000 8c 9d 4c bc ff 83 ae 3c dc ce 3f bc 48 99 82 bd
       -0.012488734 0.021303175 -0.011707034 -0.06376892
000010 37 26 eb 3d eb a6 b4 bb 3a 98 a0 bc 0a 15 7a 3d
       0.11481898 -0.0055130622 -0.019603837 0.06105522
000020 65 cd fa bd 6b 37 51 bc 27 79 2b bd e5 6b 96 3d
       -0.12246207 -0.01276956 -0.041863587 0.07344798
000030 79 a3 b1 bd f8 ff d8 bc 81 00 17 be e2 ec 70 3d
       -0.08673758 -0.026489243 -0.14746286 0.05881966
000040 ef 1b 5c 3c 0e 2a dd bd f5 9b e4 bc 01 93 82 bd
       0.013434394 -0.10799037 -0.027906397 -0.06375695
000050 14 58 00 3e bc df 02 be a6 f7 ec 3c 8c b7 77 bc
       0.12533599 -0.1278066 0.028926682 -0.015119445
000060 dd a3 a3 bd 82 b5 73 bd 8d ea f9 3d a5 42 b3 3d
       -0.07990239 -0.05949927 0.1220294 0.08752946
000070 dd 90 f9 3d 12 57 22 3c 76 13 9e bd 09 6f 9c bd
       0.121858336 0.0099084545 -0.07718556 -0.07638366
000080 27 9f 75 bd 85 23 18 3d e6 ce d4 3d 34 85 01 3e
       -0.059966233 0.03714325 0.10391025 0.12648469
000090 a2 8b 03 3e d2 81 a4 3d 87 c5 a5 bc a6 52 e2 3d
       0.12846234 0.08032574 -0.02023579 0.1105092
0000a0 63 73 aa 3d 5c c6 00 be 17 76 1a 3d c5 e7 52 bd
       0.083227895 -0.12575668 0.037710276 -0.051490564
0000b0 dd a3 80 3d 86 cf ef 3d 9c c7 f5 3d 29 c9 17 bc
       0.062812544 0.11709504 0.12000963 -0.009264269
0000c0 4d b9 34 3d 97 c7 48 3d 34 18 b1 bd f2 91 db 3d
       0.04412203 0.04901847 -0.086471945 0.10721196
0000d0 e4 de 41 bd bd 1e 81 3d 90 55 ab 3d 01 59 8c bd
       -0.047331706 0.06304691 0.08365929 -0.06852914
0000e0 42 e7 8c 3d d5 06 f4 3c ad bf 89 3d d1 25 e0 3d
       0.068800464 0.029788414 0.067260124 0.10944713
0000f0 03 54 b3 bd cd 47 a7 bd 04 88 00 3e 2e 82 a4 bb
       -0.08756258 -0.08167992 0.12551886 -0.0050204014
000100 44 2c 8e 3d 62 ea 27 bd a8 7d f2 3c ad 6c e3 bc
       0.06942037 -0.04099501 0.029600933 -0.027761782
000110 e8 0f 0b 3e 26 56 d3 3c 12 3d 06 bd c4 b3 da 3d
       0.13580287 0.025797915 -0.032773085 0.10678819
000120 0e 70 3d bd 38 80 ae 3d b3 8d 0a 3d a3 ea de 3d
       -0.04624944 0.085205495 0.03382654 0.10884597
000130 c2 9d ad 3a 8d ea a6 bd d5 a6 04 be 07 79 60 bd
       0.0013245868 -0.08150206 -0.12954266 -0.05480292
000140 82 6f 8b 3d a4 56 a6 bd ec 0b 6e bd 44 72 7f 3d
       0.06808378 -0.08121994 -0.05811684 0.06236483
000150 a2 df d4 bd 6e 55 cf 3c b1 b3 65 3d 74 6b 8f 3d
       -0.10394217 0.02530929 0.05607957 0.07002917
000160 15 6c c5 bd 35 75 a5 3d 8a 29 03 bd 66 52 e1 bb
       -0.09639756 0.08078996 -0.032022037 -0.0068762777
000170 4b d2 e1 bd c5 fb ac 3a cd 2b d6 3d c5 50 8d 3d
       -0.11026438 0.0013197592 0.10457573 0.06900171
000180 fa 30 d4 bc 0b af 9c bb 7f bf d1 3b 12 22 ad bd
       -0.02590226 -0.004781609 0.006401002 -0.08453764
000190 a1 38 cb bd a6 70 0a 3d 16 39 bb bd de 5c cc 3d
       -0.099229105 0.033798836 -0.09141748 0.099786505
0001a0 7e ff 8f bd 7c b7 7f 3d ff 5b ec bc ee 0f 59 3d
       -0.07031153 0.062430844 -0.02885246 0.052993707
0001b0 fa 75 d9 3c 75 0f 52 3c 4d c7 ad bc 72 63 57 3d
       0.026545513 0.012821068 -0.021213198 0.052585073
0001c0 50 d5 2b 3c bb 98 33 bd 39 59 f2 3c 91 ec 84 bd
       0.010487869 -0.043846827 0.02958356 -0.06490434
0001d0 b2 e3 9a bd fd 92 d7 bd b1 56 ce 3d 24 99 d2 3d
       -0.07562961 -0.10526083 0.10075129 0.102831155
0001e0 1c 6d 11 3d 47 18 93 ba ea 40 66 3d 21 11 b0 3b
       0.035504445 -0.0011222445 0.05621425 0.0053731357
0001f0 bf b6 c1 bb e2 d9 42 bd 42 b3 dd bd 69 5f b6 bd
       -0.0059116776 -0.04757107 -0.10825206 -0.08904917
000200 b4 d0 c0 3d be 81 59 3d 57 f1 cc bc 1e 8d 04 bc
       0.09414807 0.053102247 -0.025017424 -0.008090286
000210 f7 4f f3 3d 08 85 da 3d cb c9 28 3c e9 14 fa 3d
       0.118804865 0.10669905 0.010302017 0.122110195
000220 ee 36 bb bd 00 e6 7b 3c 64 d7 77 3d 7c 2a 78 3d
       -0.091413364 0.0153746605 0.060508147 0.06058739
000230 18 77 4e 3d fd 1f 84 bd b2 56 c3 3c 68 ab d8 bc
       0.050406545 -0.06451414 0.02384505 -0.02644892
000240 10 a1 b2 bc fd bd b2 3c d1 fe 51 3d 66 fe 7c 3d
       -0.021805316 0.02181911 0.051268402 0.06176605
000250 33 d5 e7 bd 30 18 97 3d 55 7b a2 3a a4 be bb 3d
       -0.113199614 0.0737766 0.0012396375 0.09167221
000260 d8 de 7b bd 55 fd 11 3d 39 7e b0 3d 10 ed 48 bd
       -0.061491817 0.035641987 0.08617825 -0.049054205
000270 8b 75 ea 3d d3 b8 01 3d 83 7d 05 3e 3c c3 8c bd
       0.11448201 0.031670403 0.1303616 -0.068731755
000280 44 ed 07 bd 9b e2 cb 3d c6 8d 28 bc 3c 93 1a bd
       -0.03318526 0.09955331 -0.010287708 -0.03773807
000290 09 41 ce bd 98 11 6f 3d f0 fc d6 3d e5 6b 93 bd
       -0.10070998 0.058366388 0.10497463 -0.071983136
0002a0 6d c3 83 bd 51 be bc 3d b1 72 87 bd 3b c5 c2 3d
       -0.06433759 0.092159875 -0.066136725 0.09510275
0002b0 04 a2 d7 3d db 2e e3 bc 32 09 1b bd 46 8b be bd
       0.10528949 -0.027732303 -0.037850566 -0.09303908
0002c0 d0 09 df 3d f0 40 fd 3b 45 e3 46 bc a1 48 b3 3d
       0.108905435 0.0077286884 -0.012139146 0.08754087
0002d0 a0 cc ef 3a c1 3a f3 bd 45 3f 56 3d 43 02 56 3d
       0.0018295236 -0.11876441 0.052306432 0.05224825
0002e0 0d 2c 26 bc 09 eb 88 3c c9 9c 69 bb ed c6 66 3c
       -0.010142338 0.016713636 -0.003564643 0.014085514
0002f0 60 de 08 3e 58 9b 6e bd 76 d0 40 bd 63 f3 8a 3d
       0.1336608 -0.058253616 -0.047073804 0.067847036
000300 8d 78 ca bb 31 9c f4 3d 75 14 3c 3c 94 ce 3a bd
       -0.0061789216 0.11943854 0.011479487 -0.045607165
000310 11 f0 f3 3d 65 50 09 3e e9 62 c8 bd 1e 74 71 bd
       0.119110234 0.13409574 -0.097844906 -0.05894863
000320 20 b3 52 3c 07 59 e8 3c 1f 35 59 bd 6a bc 92 3c
       0.01286009 0.028362764 -0.053029176 0.017912108
000330 61 36 3b 3d 09 bf 5f bc 91 ca c4 bd 62 a9 86 bd
       0.045706157 -0.013656386 -0.09608949 -0.06575276
000340 78 b6 b1 3d 11 5f ff bc 62 f3 f7 3d 53 ad 13 3d
       0.08677381 -0.03117326 0.121069685 0.036053967
000350 55 b4 15 3d d9 2f 3b bd de b6 11 bd 03 6a 55 bc
       0.03654893 -0.045699928 -0.035574786 -0.013025763
000360 ea a2 c4 bc 2e 19 c9 bd 32 3a 26 bd 8b 09 f0 3d
       -0.024003465 -0.09819256 -0.040582843 0.1172057
000370 de 1b ac 3d c4 5f 2c 3d 3d b2 a1 bc 4d 45 b2 3d
       0.08403753 0.042083517 -0.019738311 0.08704624
000380 7f d5 bc bc c4 c9 cf bd df d4 d3 bd ad e3 4a 3d
       -0.023051022 -0.101459056 -0.10343336 0.049533535
000390 28 3f 9d 3d 87 6d ca 3d 91 a4 c1 3d 94 da 3d bc
       0.07678062 0.09884172 0.09455217 -0.011587758
0003a0 5c d6 ec 3c 98 e2 1a bd d9 df 39 3c 67 6a e8 3d
       0.028910808 -0.037813753 0.011344873 0.1134842
0003b0 9e 57 d1 3d b6 aa 27 bd 51 36 cc 3d 0c 16 80 bd
       0.1022179 -0.040934287 0.099712975 -0.06254205
0003c0 10 83 97 bd e1 24 52 3d ec cd 00 bd 1a 7c 94 3d
       -0.07398045 0.0513047 -0.031446382 0.07250233
0003d0 86 2d 7b 3d e3 8a 6a 3d fd cc 09 be a9 d4 6b bd
       0.06132271 0.05726136 -0.13457103 -0.057575855
0003e0 2c eb 27 bd 7b 08 18 3e 13 34 f7 bd 80 56 3d bd
       -0.04099576 0.14846985 -0.12070479 -0.04622507
0003f0 ff 3c 04 3d f3 bb fc bc 22 b7 01 3c 20 58 8e 3d
       0.032284733 -0.03085134 0.007917197 0.06950402

lstm.weight_ih_l1 f4 [256, 64]
000000 04 05 c5 bd e2 f6 3e 3d 10 79 92 bd 5d ef a8 3d
       -0.09620097 0.046622165 -0.07151997 0.0824878
000010 b3 94 38 bc c5 1a b6 bc f4 6f a6 bd ab f6 15 3d
       -0.011265921 -0.022229562 -0.08126822 0.036612194
000020 cc 16 f0 bd a2 5a 9a 3c 53 97 c5 3c 30 50 b6 3d
       -0.11723098 0.018842045 0.024120009 0.08902013
000030 94 e1 9c 3d 74 8a d0 bd 2f 34 95 3d 6f 1b fe 3d
       0.07660213 -0.10182658 0.07285344 0.12407576
000040 72 6f ae 3a 08 7b 03 3e 6f 8e 53 bd d3 7d 34 3c
       0.001330836 0.12839901 -0.051649507 0.011016327
000050 0a f5 00 3e 06 64 de 3d 7e e1 c5 3d 7f da d6 bd
       0.12593475 0.10858922 0.0966215 -0.104908936
000060 f2 ab 73 bd 88 e5 f7 3d 2a 3e 3f bd 01 f2 72 3d
       -0.05949015 0.121043265 -0.046690144 0.059312824
000070 6a 7e 7d bc 0c 9c a1 3d 11 b2 b5 3c 58 1b 89 bd
       -0.015472034 0.07891092 0.022179635 -0.066946685
000080 09 9f 6f 3d 97 2e d8 bc 8c ba 80 bd 7e 07 f0 3d
       0.058501277 -0.026389403 -0.06285581 0.11720179
000090 49 75 10 be 2a 7c a3 3d 24 61 c3 bc 5f 88 bc bc
       -0.1410724 0.07982667 -0.023850031 -0.023014246
0000a0 13 3e e0 bd b8 e8 0a 3d 13 98 19 3d ae 29 e3 3c
       -0.1094934 0.033913344 0.037498545 0.027729835
0000b0 89 2c d6 bd 4d 14 02 be 53 c7 cb bd aa eb e1 bd
       -0.10457713 -0.12703057 -0.099501275 -0.110312775
0000c0 8e 92 4d 3d 41 5f 9d 3d 7d a4 a3 3b 34 43 cc bd
       0.050188594 0.07684184 0.0049939738 -0.099737555
0000d0 04 45 0a 3e 3a 6d 8e bd 23 14 6c bd 0d 90 88 3d
       0.1350289 -0.06954427 -0.05763639 0.066681005
0000e0 36 12 21 bd f7 ec b7 bd 7c de 64 bc db 74 6a 3d
       -0.039324008 -0.08980744 -0.01396906 0.05724035
0000f0 0c 1a 15 3e 4e 07 85 3c 0c f2 6c bc e1 6f 11 3c
       0.14560717 0.016238835 -0.014462005 0.008876772
000100 12 65 7b 3b 1f 7b 63 bc 14 85 05 bd b7 f3 88 3d
       0.0038359803 -0.013884335 -0.032597616 0.0668711
000110 62 18 14 bd ea 17 8c bd 2c 42 dc bd d3 17 2e bd
       -0.036156066 -0.06840499 -0.10754809 -0.04250319
000120 e4 32 5b bd 10 a9 a6 bd 42 b2 7e bd 67 f6 43 3d
       -0.05351533 -0.08137715 -0.06218172 0.04784241
000130 05 ab bf bd 60 4a 08 be d8 aa 85 bd cb fc d9 bd
       -0.09358791 -0.13309622 -0.065267265 -0.106439196
000140 24 42 8d bc 7d a4 b7 3d f1 64 98 bd d6 7c 7b 3d
       -0.017243452 0.089669205 -0.07441128 0.06139835
000150 d0 d4 e5 3d 25 03 2f 3d 9c 88 88 bd 5b 86 91 bd
       0.112222314 0.04272761 -0.06666681 -0.071057044
000160 ad 51 0f 3e 24 0a e5 3c e5 67 b6 bd 5d b5 f4 bd
       0.13996 0.027958937 -0.08906535 -0.11948655
000170 da 3b 15 bd 72 f9 57 3d 28 a6 63 3c 2a 82 14 bd
       -0.036434032 0.052728124 0.013894595 -0.036256947
000180 dc 95 be bc a0 d2 0e 3d f3 75 c5 bc 30 49 4d bc
       -0.023264818 0.034868836 -0.024104094 -0.012529656
000190 e4 e8 29 3d 33 8b 96 bd 1f b2 22 bd d8 e9 c4 bd
       0.041481867 -0.07350769 -0.03972065 -0.09614915
0001a0 9c ad 07 3d 34 93 da bd d8 21 b6 ba 40 4d 62 bd
       0.03312455 -0.10672608 -0.0013895584 -0.055249453
0001b0 b1 bd 58 3d 98 ba f9 3d d2 f7 09 bd d8 dc 99 bd
       0.05291528 0.12193793 -0.033683605 -0.07512826
0001c0 83 b4 b7 bd 1e 33 24 bd 59 4a cd bd be 79 0f 3d
       -0.08969977 -0.04008781 -0.10023946 0.03502821
0001d0 65 45 de 3d 54 bf 0c 3d 7a 00 90 bd 64 02 a5 3c
       0.1085308 0.034362152 -0.07031341 0.020142742
0001e0 24 7d 1b 3e 01 04 c3 bb 6c 82 cc 3d c8 9f 52 bd
       0.15184456 -0.005951405 0.099858135 -0.05142191
0001f0 71 27 31 3d d0 59 8d bd a1 b1 54 bd 25 3f b6 3d
       0.043250505 -0.06901896 -0.051927213 0.088987626
000200 9e b9 d5 3c 4a 04 0a bd 45 96 a1 bd 49 ef 8b 3d
       0.026089486 -0.033695497 -0.0788999 0.068327494
000210 e1 1f b6 3d cd 88 e8 3d 55 0e 81 bd fd a2 44 bd
       0.08892799 0.11354218 -0.06301562 -0.048007
000220 c9 e9 ce 3d ee b6 ec bd 76 9e c0 3d 5d 8c 65 bb
       0.10103185 -0.115583286 0.09405224 -0.003502629
000230 ed 1f 9a 3d 43 61 9f 3c bc 7e 06 3e e3 20 88 bd
       0.075256206 0.019455558 0.13134283 -0.06646898
000240 11 5b ad 3d 83 21 15 bd 88 d9 02 3e ef 36 b0 3d
       0.08464635 -0.036408912 0.12778294 0.08604228
000250 d3 d4 c9 bb 18 9f bb 38 12 2a 8e 3d ea 21 c6 bd
       -0.006159404 8.9464884e-05 0.06941618 -0.09674437
000260 cb 60 01 be ca 1d be bc 35 c3 d1 bd 41 73 89 bb
       -0.1263458 -0.023207564 -0.10242311 -0.0041946475
000270 ac d8 f8 3d e4 55 dd bd 87 5b 76 3c b2 5a b2 bc
       0.12150702 -0.10807398 0.01503647 -0.021771763
000280 f2 ce 88 bd 5c 53 c6 bd 1a e4 4d 3d 68 a3 bd bd
       -0.06680097 -0.09683868 0.050266363 -0.09259683
000290 43 27 b4 bb 2e 36 a4 bd 12 1d 83 3d 85 23 67 bc
       -0.0054978444 -0.080181465 0.06402029 -0.01410759
0002a0 d0 1d d6 bc 96 0f 2a 3a 15 2b 67 3b e8 7d 41 3d
       -0.026137263 0.0006487308 0.0035273482 0.047239214
0002b0 94 ad 6a bd 42 5d 3a 3d 35 5b 1f 3d bd 62 9e bd
       -0.057294443 0.045499094 0.03890534 -0.077336766
0002c0 ac e8 06 3d 4e 21 fd 3c 0a a7 d6 3d 3a 9a b4 3c
       0.032936737 0.03089967 0.10481079 0.022046197
0002d0 7e 1b be bd f1 18 db bd 41 43 e2 3d 4e a6 e6 bd
       -0.092825875 -0.106981166 0.11047984 -0.11262189
0002e0 b9 0b d1 bd 4b 63 95 bd 96 8c d9 3d 8a 51 88 bd
       -0.10207314 -0.07294329 0.10622518 -0.06656177
0002f0 65 22 44 bc 8d 5f d1 bc 4c 1c d4 3c 13 d2 63 bd
       -0.011971091 -0.025558257 0.0258924 -0.055620264
000300 c5 8b f7 3d 94 cc c6 bd 7c b3 c0 bd fb f3 5c bd
       0.12087206 -0.09706989 -0.09409234 -0.053943615
000310 8d 87 bc bd cb f1 8f bc 45 48 f7 bd 4b a5 20 3d
       -0.09205542 -0.01757135 -0.12074331 0.039220136
000320 7d 4b 41 3d df d0 9b 3d c0 49 81 bc b0 a6 0e bd
       0.04719113 0.076081984 -0.015782237 -0.034826934
000330 cd b0 a9 3d 67 fe bc bd c9 49 bf bd 9e a8 b0 bd
       0.08285675 -0.09228211 -0.09340245 -0.08625911
000340 02 66 4c 3d 0c 84 61 bc a7 05 84 3d d0 48 a3 3d
       0.04990197 -0.013764393 0.064463906 0.07972872
000350 e8 01 f2 bc b7 ef 8d bb 90 b3 e6 3d 72 22 7e bc
       -0.029541925 -0.0043315548 0.112647176 -0.015511142
000360 c9 6c c2 bc a4 89 63 bd 96 61 d0 bb cf 49 de 3d
       -0.023733513 -0.055551186 -0.0063592894 0.108539216
000370 6f f6 da 3d 2e cc fd 3d f1 2b 65 3c 22 68 96 bc
       0.10691535 0.1239246 0.013987527 -0.018360201
000380 c7 ba ae bc ec 38 f7 3c a2 db dd bb 52 9d 01 3e
       -0.021329297 0.03017851 -0.006770567 0.12657669
000390 c5 1e 8d bd f2 a8 d9 3d de 5f 01 bd ec 46 04 bd
       -0.068906344 0.10627927 -0.031585567 -0.0322942
0003a0 d5 8f 22 bd 19 3b db bd f9 b1 6c 3d c3 b5 4e bd
       -0.03968795 -0.10704631 0.057786915 -0.05046631
0003b0 90 b9 c7 bd 4f c9 b3 bd 27 9b af 3d fb a3 6b bd
       -0.0975219 -0.08778631 0.08574515 -0.05752943
0003c0 0c b6 a7 bb 8a 53 22 bd 59 16 be bd 34 7a 7d bd
       -0.005118137 -0.03963045 -0.09281606 -0.06188412
0003d0 b0 93 d1 3b e1 78 73 bd af 0d 88 bd 4f 5f fd 3d
       0.0063957796 -0.05944145 -0.06643235 0.12371694
0003e0 8e 9b 37 3c 85 a8 db 3d b3 77 a3 bd 7a a5 43 bc
       0.011206521 0.10725502 -0.07981815 -0.011941308
0003f0 f4 da e2 bd e2 e4 de bd a2 42 d7 bd 3a 72 5e b9
       -0.11076918 -0.108835 -0.10510756 -0.00021214123

lstm.weight_hh_l1 f4 [256, 64]
000000 76 20 9c 3d b8 17 f0 bd 85 f3 b5 3c 8d ea 8b 3d
       0.07623379 -0.11723274 0.022210846 0.068318464
000010 74 d2 6e ba 47 3f a0 bd 31 df 8d 3c 98 33 82 3d
       -0.00091103395 -0.07824569 0.01731834 0.06357497
000020 b1 8e c3 3d 95 7d d1 bd 68 ed 95 3c 27 6c 77 3d
       0.095487006 -0.10229031 0.01830168 0.060405876
000030 07 e4 84 bd 87 ef 91 3d 57 f3 f0 3d 18 02 e0 3c
       -0.06488805 0.07125764 0.117651634 0.027344748
000040 14 42 62 bd d4 63 d7 bd 6d be 19 3d f4 21 e6 bc
       -0.0552388 -0.105170876 0.03753512 -0.028092362
000050 a7 72 e0 3b 29 f8 49 3c 05 a7 e3 bc 7a db 52 3d
       0.006849605 0.012327232 -0.027789602 0.05147884
000060 fa 34 e5 bd b5 17 30 bd 9a 81 0c 3d 7d cc ce bc
       -0.11191745 -0.04299136 0.034303285 -0.025243992
000070 89 6a b9 bd 38 91 81 3a c6 7f 07 bd 6d 63 e3 bd
       -0.09053523 0.0009885198 -0.03308084 -0.11102948
000080 74 fe c6 bc db c5 ab bd 63 39 8f 3d 9a b5 be bd
       -0.024291255 -0.08387347 0.069933675 -0.093119815
000090 83 b3 9a 3d 3f 4c 75 3c c7 f4 0a bc 6b 43 11 3c
       0.075537704 0.014971792 -0.008481211 0.008866171
0000a0 c1 60 30 3d dc d2 89 bd 70 e9 ad bd e7 b3 b8 bd
       0.04306102 -0.06729671 -0.0849179 -0.09018689
0000b0 cc 56 b5 3d c3 01 d8 bd b3 32 40 bd c2 d8 00 be
       0.08854446 -0.10547211 -0.04692335 -0.12582687
0000c0 92 89 cc bb 4c 7d 88 bd 81 58 0f bd 17 a9 b9 bd
       -0.0062419856 -0.066645235 -0.034996513 -0.090654545
0000d0 7b ea f0 3d c4 be 4f 3c 4a cd 7f 3d a4 28 dd 3c
       0.117634736 0.012679759 0.06245164 0.026996918
0000e0 2f 74 c8 bd c0 63 b6 3d 41 b8 93 3c a2 b7 fc bd
       -0.09787785 0.089057446 0.018032195 -0.12339713
0000f0 23 05 d7 3d 4a a4 33 3d c2 5f 81 bd 54 39 10 3d
       0.104990266 0.04385785 -0.063170925 0.035210922
000100 bf 02 b3 bc 9f ea ec 3c e4 59 f1 bd da 38 93 3d
       -0.021851895 0.02892047 -0.117847234 0.07188578
000110 a1 d8 90 bd 72 24 b0 3c 8d 72 2f bd 55 b8 84 bd
       -0.07072569 0.021501753 -0.042833854 -0.06480471
000120 33 d7 e6 bd ca 04 33 3d 7f fa b9 bd 64 25 a4 bd
       -0.11271515 0.04370574 -0.090809815 -0.08014944
000130 4f 98 36 3d 20 89 b1 bd fd 67 6f 3d 8c d3 a2 bd
       0.044578847 -0.08668733 0.05844878 -0.079505056
000140 e8 b3 fc bd 00 b4 00 ba 72 d3 fb 3d 6b 1d 0e 3e
       -0.12339002 -0.00049096346 0.12296189 0.1387841
000150 c3 85 89 3d d5 55 cc bd 16 d5 17 be 3d 79 99 3d
       0.06714966 -0.09977309 -0.1482738 0.074938275
000160 ec 48 09 bc 6e 68 fc 3d ae 4e c9 3d df 01 3d bd
       -0.008379202 0.12324606 0.0982946 -0.046144363
000170 61 e1 43 bd 07 c3 6e 3b 1e 0f 90 3d 81 ba 8c bd
       -0.04782236 0.0036432163 0.070341334 -0.0687151
000180 de 90 d5 bd 20 c0 e9 3d d0 b1 5a bd 82 b9 93 ba
       -0.10428022 0.11413598 -0.05339223 -0.0011270496
000190 51 6f 98 bc 7d 5f 2b bb fc e5 e0 3d 11 82 85 3d
       -0.018607767 -0.0026149445 0.10981366 0.06518949
0001a0 c9 47 b0 bd 2e e8 93 3d 1c 16 bd 3d 58 35 12 3e
       -0.08607442 0.07222019 0.09232733 0.14278162
0001b0 66 51 c2 3d 5d 42 eb 3d b4 ad 91 3c 53 e2 10 3e
       0.09488182 0.11487267 0.017783023 0.14148836
0001c0 0f fb 78 bc 54 3f 9e 3d af b0 be 3d c1 b2 af 3d
       -0.015196576 0.07726923 0.093110435 0.085790165
0001d0 ec cd ae 3c e6 8a c5 bb 4d 5f b9 bd d8 c2 15 be
       0.021338426 -0.006028521 -0.0905138 -0.14625108
0001e0 92 53 00 be 43 a8 16 3e de 27 98 bd e0 dd cd bd
       -0.1253188 0.14712624 -0.07429479 -0.10052085
0001f0 d8 66 82 bd 93 c2 e9 3d 5f db 82 bd 91 7b d5 3d
       -0.06367272 0.11414065 -0.06389498 0.10423959
000200 95 8f 29 3c f6 08 b7 3d ef 36 cd 3c 66 4b 84 bc
       0.010349174 0.08937256 0.025050608 -0.016149234
000210 36 fd bf 3d 4c 9d 57 3b 97 6b f3 bc a4 4a b6 bc
       0.09374468 0.0032900153 -0.029714389 -0.022252388
000220 9a e6 54 bc a7 7a 22 3d c8 e4 5f 3d 75 d7 44 3c
       -0.012994433 0.03966775 0.054661542 0.01201426
000230 22 cf e9 3d a9 79 a2 bc 51 ed 19 bd f0 22 00 3d
       0.114164606 -0.019833403 -0.03757984 0.03128332
000240 c4 7d a9 bd 0c 80 2e 3c e3 57 70 3d 60 bb 68 3b
       -0.08275941 0.010650646 0.058677565 0.0035512075
000250 fd 3c ed bd b5 e3 4b 3d f6 f6 46 3d 3d c5 9d bb
       -0.11583898 0.049777705 0.048575364 -0.0048147724
000260 43 8a 82 bd e0 0a c2 bd 6b 1c 05 3d 83 48 ce 3b
       -0.063740276 -0.094747305 0.032497805 0.006295265
000270 cf 17 e2 3d 1e 8c 8c 3d 15 75 a9 3d 1c a0 f3 bc
       0.110396974 0.06862663 0.08274285 -0.029739432
000280 e6 1d 02 bd 62 0c 94 3d 01 fe b7 3c 13 8c ea 3d
       -0.031766795 0.07228924 0.022459986 0.11452498
000290 8b 5f 20 bd cc e6 8e bd fa fe f3 3c af 15 fd 3c
       -0.039153617 -0.06977615 0.029784668 0.030894129
0002a0 6d 42 88 bc 2c 99 9b 3d bf 1e e6 3b c5 9f d8 bd
       -0.016633237 0.075975746 0.007022708 -0.105773486
0002b0 82 bf e2 3d b6 9d ac 3d 56 5c f4 bb 1e 93 c7 bc
       0.110716835 0.084285185 -0.0074572964 -0.024362143
0002c0 ce 4b 06 be 0e 3b f0 bd 73 fb 02 3a cd d0 f1 3c
       -0.13114855 -0.11730014 0.00049965753 0.02951851
0002d0 17 23 00 3e 22 ae de 3d 4e 20 7b 3d 97 27 a7 bd
       0.12513386 0.10873057 0.061310105 -0.08161848
0002e0 20 44 e1 3d c9 e6 87 3d f2 a8 bb 3d b6 4b a3 3d
       0.10999322 0.06635816 0.09163083 0.07973425
0002f0 2d 31 ca 3d 04 50 8e bd e9 ca cc 3d e2 02 ae 3d
       0.09872661 -0.069488555 0.099996395 0.084966436
000300 e5 cf 9b 3d c8 c2 06 3d e8 f3 ba 3d 03 7c 33 bc
       0.07608012 0.0329006 0.09128553 -0.01095486
000310 9e 64 08 3c f5 ba d3 bd 50 a3 5b bd 12 8a b5 3d
       0.00832477 -0.103383936 -0.053622544 0.088642254
000320 83 f6 72 3d ae 84 d8 bc f7 aa f9 bd 7d 97 d3 bd
       0.059317123 -0.026430454 -0.12190812 -0.103316285
000330 27 83 a8 3b 52 48 f6 bc 3b a2 65 3d 0a e2 90 3d
       0.0051425877 -0.030063782 0.05606292 0.070743635
000340 b4 60 b6 bb a8 72 d3 3d f7 2d d8 3d 3c 1a 88 bb
       -0.005565727 0.10324603 0.10555642 -0.004153518
000350 6e 2f 5b bd 7e 0f 5b bd 57 c3 92 bd 4a d2 5d 3d
       -0.05351203 -0.05348157 -0.07166164 0.054155625
000360 84 eb af bb cd ec 81 3c 13 5d d4 3d 37 e6 d8 bd
       -0.005368652 0.015859986 0.10369315 -0.10590785
000370 fe d1 02 bc e5 40 50 3d 34 2b b1 3d 36 72 d0 bd
       -0.007984636 0.05084314 0.086508185 -0.10178034
000380 88 30 e4 bd 3f 32 67 bb 90 46 c2 3d 6e 11 ce 3d
       -0.11142069 -0.0035277752 0.09486115 0.10061918
000390 92 28 dc bc 3c 71 0d bd 03 2a 32 3d 18 c6 e3 3d
       -0.026874814 -0.034531817 0.043497097 0.11121768
0003a0 3b 35 6c bc b4 ba 9b bd af fb 58 3d 8a 43 bc 3d
       -0.014416988 -0.0760397 0.0529744 0.091925696
0003b0 aa e9 1a bd bc 5d 8f 3d 18 0f d4 bc c6 5f 01 3e
       -0.037820496 0.070003 -0.025886104 0.12634191
0003c0 62 63 94 bd d5 ef da bb 8f a4 82 3c af 49 98 bc
       -0.07245518 -0.0066814222 0.015947608 -0.018589823
0003d0 42 e5 cc bd a2 c5 53 bc f6 da 11 bd 51 1f 3b bc
       -0.10004665 -0.012925537 -0.035609208 -0.011421041
0003e0 b0 92 f9 3c 56 84 8b 3d 82 d2 f4 3c 1a aa 83 bd
       0.030465454 0.068123505 0.029885534 -0.06428929
0003f0 65 fc 5d 3d 54 82 bb 3d ef 6f b6 3d 53 79 c8 bd
       0.05419578 0.091557175 0.089080684 -0.09788766

lstm.bias_ih_l1 f4 [256]
000000 70 82 21 bd dc cf 88 bd e9 b9 d8 3d 5c f5 93 3c
       -0.039431036 -0.06680271 0.105823345 0.018061332
000010 8f 5c 68 3c 61 b2 ec bd ef 5c 5f 3d 2d 36 56 3d
       0.014182224 -0.115574606 0.054531988 0.05229776
000020 aa 90 c9 bd b1 71 c3 3c 8c 33 f4 3d 38 33 9a bd
       -0.098420456 0.023857923 0.11923894 -0.075293005
000030 25 e0 2b 3c 2b 86 29 3d bf 40 b8 3d be ec c8 bd
       0.010490452 0.04138772 0.08996724 -0.0981078
000040 55 de fe 3c ca 23 ff bd cb c3 22 3b 96 49 f6 3d
       0.031111876 -0.12457998 0.002483594 0.12025754
000050 b7 a8 2c bd f1 0f 0c bd 7b 71 fe bb 2e 6c aa bd
       -0.042153087 -0.03419489 -0.007764993 -0.08321415
000060 26 82 52 3d a7 41 06 be a7 e2 a0 3d 1e 61 9f 3d
       0.05139365 -0.13110982 0.078557305 0.077821955
000070 db 58 2e bc 16 93 c0 3b bb 51 51 bd ae 1b 9c 3d
       -0.010641302 0.005876909 -0.051103335 0.07622467
000080 db 39 96 bd f2 5d 3c 3c df 2e 4e 3d 12 76 b6 3d
       -0.07335254 0.011497008 0.05033767 0.08909239
000090 65 4e 83 bb ed ee ea 3c 70 f0 95 3d 78 36 0a bd
       -0.004007148 0.028678382 0.073212504 -0.03374335
0000a0 ef 82 96 3d 3a 41 41 3d 75 c9 10 be 7e 85 0e bb
       0.07349192 0.047181346 -0.1413935 -0.0021747048
0000b0 7b 12 be bd 6a 9d c7 bd 75 bf 83 3d 5a fc 01 bd
       -0.092808686 -0.09746821 0.06433002 -0.0317348
0000c0 45 a2 d0 3d 62 99 c5 3d 6a 5f 96 bd 6f 85 dc 3b
       0.101872005 0.09648396 -0.073424175 0.0067297737
0000d0 68 e1 a2 3d 10 03 b2 bd 20 ae 05 3d fc 46 0b bd
       0.07953149 -0.086919904 0.03263676 -0.034003243
0000e0 81 3b 74 3b 6b 43 05 3e 52 bf a3 3c 66 33 80 3d
       0.0037266912 0.13013999 0.01998869 0.062598035
0000f0 97 e4 8e bc e4 79 fd bd d7 86 86 3d ac d5 cd 3d
       -0.017442985 -0.123767644 0.065686874 0.1005052
000100 0d 7b 55 bb 09 34 ab bd 1c d8 7e bb 14 d7 b6 bd
       -0.0032574565 -0.08359534 -0.0038886135 -0.08927742
000110 57 e1 23 bc 47 2f 37 3d f6 2a 87 bb ef 35 16 bd
       -0.010002456 0.04472282 -0.0041249944 -0.03667253
000120 9d b5 88 3d 45 07 c8 bd ad c6 93 3d c4 01 92 3c
       0.06675265 -0.097670116 0.07215629 0.017823108
000130 54 8c 9a bc e2 5a 76 bd d2 cd 12 3c 12 39 9f 3d
       -0.018865742 -0.060145266 0.008960204 0.07774557
000140 b7 94 4e 3d 9e 5a 17 3c 9e 68 d0 bc 82 c2 01 3d
       0.050434794 0.009237913 -0.02544051 0.031679638
000150 26 42 90 bd ab 65 98 3d 9e d1 6f bd 65 c9 ca 3d
       -0.07043867 0.074412666 -0.058549516 0.09901694
000160 38 29 3a 3d 42 07 b4 3d fa fe 01 3e 23 9b eb 3d
       0.045449466 0.08790447 0.12694922 0.11504199
000170 52 f2 6b 3d 6c 94 95 bd ea e2 ae 3c b3 9f 98 3d
       0.05760414 -0.073037 0.021348435 0.07452335
000180 85 f0 9e 3d 36 86 86 bd 77 11 58 3d f7 39 78 bb
       0.07760719 -0.065685675 0.05275103 -0.0037876347
000190 a7 59 03 3e 60 5a ba 3d f3 86 dc 3c 09 c4 76 bd
       0.12827168 0.09099269 0.026919818 -0.060245547
0001a0 cf 2d c6 3d b1 b0 c0 3d a5 5d 01 be 80 33 dc bd
       0.09676706 0.09408701 -0.12633379 -0.1075201
0001b0 93 a3 d7 bd ee 82 9a 3d 98 8e 9c 3b a2 bf d0 3c
       -0.10529246 0.07544504 0.0047777407 0.025482003
0001c0 d6 88 99 bc 1d 61 2b bd b7 b5 f6 3d 67 34 2f 3c
       -0.018742006 -0.04184066 0.12046378 0.010693646
0001d0 6f d2 51 bc f4 86 90 bd 86 75 04 3d f1 a8 9c bd
       -0.012806519 -0.0705699 0.03233864 -0.076494105
0001e0 05 49 b4 bd fc 52 0b 3e 1d 18 80 bc d0 ee 88 bd
       -0.0880299 0.13605875 -0.015636498 -0.06686175
0001f0 47 d7 51 bd ee 56 08 3d f1 02 5a bd 92 74 8d bd
       -0.051230695 0.033286028 -0.05322546 -0.06907
000200 32 ff 96 bd e9 b2 9e 3a a1 8d 0f bc 3d f8 0c be
       -0.073728934 0.0012107763 -0.008761794 -0.1376657
000210 63 1e 58 3d 4d 1f 84 bd 0d c3 0e 3e cf 04 1e bd
       0.052763354 -0.06451283 0.13941593 -0.038578805
000220 df 82 11 bd 43 f0 18 bd 84 0f ab 3d 50 60 25 3d
       -0.0355252 -0.037338506 0.08352569 0.040375054
000230 dd 4c 4f bb 6d 34 88 bc 3e 74 4b bd 56 bf 5b 3d
       -0.0031631507 -0.016626561 -0.049671404 0.05364927
000240 90 c3 c4 3d 6f 00 03 3e a9 32 91 3d 89 08 98 bd
       0.09607613 0.12793134 0.07089741 -0.07423503
000250 9b c6 15 bd 8a 5d 07 3e 9a 0f cf bd 76 5c 8f 3b
       -0.036566358 0.13219276 -0.10110398 0.004375036
000260 2b 8f 2e bd a5 bd 85 3d 07 e6 0e be ad 1f 5f 3d
       -0.042617004 0.065303124 -0.13954936 0.054473568
000270 2a 4f 0a bb 62 ac 84 3d ea ef a5 3d 20 92 02 be
       -0.0021104314 0.06478192 0.081024006 -0.12751055
000280 dd d8 7b 3d 96 36 fe 3d ec 8c 6b bb c1 f3 23 3d
       0.061486114 0.12412755 -0.003594215 0.040027384
000290 e6 ad c9 3d fd a8 0f 3e f0 17 b1 bd 3f 54 43 3d
       0.098476216 0.14029308 -0.08647144 0.047687765
0002a0 9f ff 72 3d 72 6a c3 3d 02 69 3f 3d 3e 46 0b be
       0.05932581 0.09541787 0.046731003 -0.13601014
0002b0 95 3d a1 3c 9b be 01 be 3a c8 ba 3d 77 3c 98 3c
       0.019682685 -0.12670366 0.091202214 0.01858352
0002c0 d8 e8 5d 3d 23 67 e1 3d a3 cf ad 3d ba aa a3 bd
       0.054177135 0.11006 0.08486869 -0.07991548
0002d0 41 7e 03 3e 1c 27 30 bd 6f 91 fb 3c af 88 f9 3c
       0.12841131 -0.043006048 0.030708997 0.030460684
0002e0 47 11 72 3d fd bf 0f 3d 7a 1e ac 3d 3d 36 d5 3d
       0.05909851 0.035095204 0.084042504 0.10410736
0002f0 a3 98 d1 bc 62 ac 38 3d d2 a4 fd bd b1 ac f7 3d
       -0.025585478 0.045086272 -0.123849526 0.12093485
000300 43 ec a1 bc 2d 0e 1d 3d 57 7c d4 bd f8 e9 d6 3d
       -0.019765979 0.038343597 -0.103752784 0.10493845
000310 75 86 75 3c 9b f7 c0 bd 5a ee 51 3c a9 9e 0e 3e
       0.01498567 -0.09422227 0.012813175 0.13927712
000320 46 d0 b6 3c 49 c9 ff bd 7b 69 e9 3d 34 e7 0b 3e
       0.02231611 -0.12489564 0.11397072 0.13662416
000330 4d b2 76 3d a1 0e ca bd 2d 3c 9d bd d3 64 f8 3d
       0.060228635 -0.098660715 -0.07677493 0.12128606
000340 32 8a be 3d b8 41 74 bd 49 8a e7 3d b7 93 36 bd
       0.093037024 -0.059632987 0.11305673 -0.044574466
000350 58 b1 27 3d ef 39 bf bd b7 22 d5 bd 3f 63 ee bb
       0.040940613 -0.09337222 -0.10407012 -0.0072750147
000360 b2 d7 dd bd 7c 27 f5 bd 02 a8 2e 3c 0f 62 85 bd
       -0.10832156 -0.11970422 0.010660173 -0.06512844
000370 7c 75 cb bd 94 dd 0d 3e 59 67 0d be c0 c4 e7 3d
       -0.09934518 0.13854057 -0.13808955 0.11316824
000380 cc cf 7a bd 05 85 69 3d f9 35 44 bd ba 8c 87 3d
       -0.061233327 0.057011623 -0.047903035 0.06618638
000390 01 2d ee bc 72 cd 3a 3d c9 f3 3f 3d 5f 61 ce bd
       -0.029074194 0.045606084 0.04686335 -0.10077166
0003a0 66 c2 08 bd 1a d5 33 3d cc 21 5a 3d b7 04 05 3d
       -0.033388518 0.0439044 0.053254887 0.0324752
0003b0 5c 29 b3 3d 0d e8 33 bd 58 95 89 bd 82 43 34 3d
       0.08748123 -0.043922473 -0.06717938 0.044009693
0003c0 e6 84 4f 3d 35 8d 93 ba a2 a0 12 bc 13 47 51 3c
       0.05066385 -0.0011257293 -0.008949431 0.012773293
0003d0 70 b6 69 3c 87 89 cc 3a 0c a6 9e 3d af 42 bb bd
       0.014264688 0.0015604951 0.07746515 -0.09143578
0003e0 b2 c4 4a bd 3f d3 c4 3b a4 c4 a9 3c 9d a6 c6 3d
       -0.04950399 0.006006628 0.020723648 0.09699748
0003f0 bc 79 b0 bd 37 3d 4f 3d e1 48 d4 3d 84 83 22 3d
       -0.08616969 0.05059549 0.10365463 0.039676204
