DFY_project/internal/model_autoencoder.pth (torch, 8217 bytes, 8 tensors)

encoder.0.weight f4 [32, 8]
000000 a0 7a af 3e 1f e3 fe bd 02 2f 22 3e b6 b8 38 be
       0.34273243 -0.12445664 0.15838245 -0.18039212
000010 20 28 a0 bc 48 71 1a 3e 92 95 b7 3d 85 88 07 3d
       -0.019550383 0.15082276 0.08964075 0.03308918
000020 40 ef 55 be 59 ab a1 3e e0 de 47 be 2c 1d 37 be
       -0.20892048 0.3157604 -0.19518614 -0.17882222
000030 22 fb b4 bb 44 c3 f8 bd 72 3c 2e 3e e3 84 95 3e
       -0.0055231014 -0.12146619 0.17015246 0.29202947
000040 13 e2 d0 3d 45 38 db be af fa 85 be 4b ca 57 be
       0.1019937 -0.42816368 -0.2616782 -0.21073262
000050 66 a4 3d 3d 7d 2d a2 3e 0e 78 d4 3e 63 2b a1 3e
       0.04629936 0.3167533 0.41497844 0.31478414
000060 da b9 20 be a8 fa 7b be bc c3 14 3e af c7 16 3e
       -0.15695897 -0.24607337 0.14527792 0.14724611
000070 eb 7d 87 ba 9a 85 8d 3d 80 e4 49 be ff e1 69 3e
       -0.0010337209 0.06910248 -0.19716072 0.22840117
000080 a3 0b da 3e 3b 72 dc 3e af 4b 9e 3e 78 1c 03 3e
       0.42587003 0.430559 0.30917117 0.12803829
000090 73 80 cc 3e 02 5d c7 bd b4 f1 1f be ff de 80 3e
       0.3994175 -0.09734537 -0.15619546 0.25170133
0000a0 69 b6 d1 3e 7b c7 89 3e d4 f3 9a bd 1c a0 4c be
       0.4095948 0.26910004 -0.07566038 -0.19982952
0000b0 d1 54 d4 bd cb a0 ea bd 2b f4 15 3d ff 71 4b 3e
       -0.1036774 -0.1145645 0.03660981 0.19867705
0000c0 63 f2 92 be 8a 74 69 3b b0 5e b5 bd 74 e6 a2 be
       -0.2870055 0.0035622441 -0.08855951 -0.31816447
0000d0 d2 fc 17 be b6 6a 28 be 07 68 4f bd 98 57 91 be
       -0.14842537 -0.16446957 -0.050636318 -0.2838714
0000e0 5f b5 ac 3e 1c b1 85 be 7d a2 1e be f9 2b cd 3e
       0.33732125 -0.26111686 -0.15491672 0.4007261
0000f0 27 d2 b7 3d fe 3a 29 3e 1d 60 33 be 68 88 a0 3e
       0.0897563 0.1652641 -0.17517133 0.3135407
000100 41 b1 fe bb eb 13 2d be a2 08 f9 bd fe 73 a1 3e
       -0.007772595 -0.1690213 -0.1215985 0.31533808
000110 52 ff 80 3e db 57 72 3e d0 03 19 3e de 54 ab 3d
       0.25194794 0.23666327 0.1494286 0.083657965
000120 08 92 e2 bd f2 6d 42 be 1b 46 99 be 09 14 62 3e
       -0.110630095 -0.18987253 -0.299363 0.22077955
000130 91 5b 1f be 00 25 0f be dc 57 1c 3d 84 eb 32 be
       -0.15562274 -0.13978958 0.038169727 -0.17472655
000140 91 f3 e2 bd 7a 24 ef 3d f2 6a 40 3e 5c 94 a0 3e
       -0.11081613 0.11676879 0.18790796 0.3136319
000150 06 25 33 3e 20 14 b7 3e d0 ef 79 3d 92 3d c8 be
       0.17494592 0.35757542 0.06101972 -0.39109474
000160 a5 14 3f 3d a9 57 3f 3e c4 6d 87 be 29 6b d0 be
       0.046650548 0.18685783 -0.26450932 -0.40706757
000170 ea 4f 88 3e 01 61 3a 3e 95 e3 cf 3e fc c8 6c bc
       0.2662347 0.18201067 0.4060332 -0.014452215
000180 fc a3 93 be 2d ff 7c be f1 32 38 be 38 e1 8e be
       -0.28836048 -0.24706717 -0.17988183 -0.27906203
000190 c2 ea 12 3e 16 67 60 be 3a e3 a3 be 59 11 1b be
       0.14347365 -0.21914324 -0.32009298 -0.15143336
0001a0 c6 17 4e 3e d6 88 fa 3d bf a3 62 be 4c 16 8d bc
       0.20126256 0.12233131 -0.22132777 -0.017222546
0001b0 da e6 8e 3e 53 f8 d7 3e ce 17 17 3d 71 dc 58 3e
       0.279105 0.42181644 0.036887936 0.21177842
0001c0 a0 45 09 be c9 46 cd 3d 95 b4 a0 be e4 3a 6e 3e
       -0.13405466 0.10023267 -0.31387773 0.23264652
0001d0 f1 17 d4 bd 64 ee 84 3e 35 dd 4b 3e fd 9e 80 be
       -0.10356129 0.25963128 0.19908603 -0.25121298
0001e0 e8 4a b2 bd 80 b1 47 3c c4 cb ff bd 1a 53 bc be
       -0.087056935 0.012188315 -0.12490037 -0.3678215
0001f0 84 8e 46 3e dc 77 89 be a0 c6 65 3e 66 0e 3c be
       0.19390303 -0.26849258 0.2243905 -0.18364868
000200 f9 e9 0f be a0 ac d1 3e 88 19 97 3d 03 a8 27 3e
       -0.14054097 0.40952015 0.073779166 0.16372685
000210 39 6e a5 be 0e 15 46 bd 34 ff 84 be 99 1a eb bd
       -0.32310656 -0.048359923 -0.25975955 -0.114796825
000220 0c 1e 88 be e9 42 b4 3e 9c c4 f5 3d bc 95 80 be
       -0.26585424 0.35207298 0.12000391 -0.25114238
000230 dc e4 b0 3e e7 bb cc 3e 79 dd 3f 3c 7d 8d 71 bd
       0.34549606 0.39987108 0.011710518 -0.058972824
000240 92 5b 59 be fd eb 5d bd 23 55 8d 3e 71 3c 3a bc
       -0.21226338 -0.054180134 0.27604017 -0.011366949
000250 c9 9d fd bd ac c1 b2 bd 2c 86 d4 be 02 50 7a 3e
       -0.12383611 -0.08728346 -0.41508615 0.24444583
000260 a9 1e 9c 3d f2 9c c8 bd 2a e7 55 be a4 82 16 be
       0.076230355 -0.0979556 -0.20888963 -0.14698273
000270 70 e9 e9 bd c0 cf a3 3e 66 61 50 3e 55 3e be 3d
       -0.11421478 0.31994438 0.20349655 0.09289233
000280 80 a0 56 bc 5d bc a9 3e ed 8c aa be c9 24 08 3e
       -0.01309979 0.33151522 -0.33310643 0.13295282
000290 97 82 39 3e e3 4b de bc 08 34 bb 3d fd 5b bf bc
       0.18116222 -0.027135795 0.091407835 -0.023359293
0002a0 75 63 62 be 38 64 c8 b9 4d ef a7 3e 71 00 7f 3e
       -0.22108252 -0.0003822164 0.3279976 0.24902512
0002b0 86 ed eb 3d 35 60 0a be cc 78 03 3e 9c 8b 30 3e
       0.115199134 -0.13513263 0.12839049 0.17240757
0002c0 82 d6 93 3e 32 61 8d be 6e d5 3d 3e d6 6f 93 3e
       0.28874594 -0.27613217 0.18538448 0.28796262
0002d0 6f 7a 16 3e 85 39 93 bd d4 65 a2 be b9 b9 90 be
       0.14695142 -0.07188705 -0.31718314 -0.28266695
0002e0 7d 9a 10 3e 76 b2 08 3e ab 0c 34 be 07 6e 4d be
       0.14121433 0.13349327 -0.17582957 -0.20061503
0002f0 06 2a 95 be 30 2f a6 3e 6a c8 29 3e 51 b0 c7 be
       -0.29133624 0.32457876 0.16580358 -0.39001706
000300 d8 83 43 be 20 32 1d be 63 53 6b be 7e 04 4e be
       -0.19093263 -0.15351152 -0.22981028 -0.20118901
000310 8a de be bc 15 8e 9f be cd ca cd bd cb c3 f0 3d
       -0.023299474 -0.31163087 -0.10048447 0.117560945
000320 c9 f8 0d 3e 2e 8c c8 bc db 95 0e be 00 f4 94 3e
       0.13864435 -0.024480905 -0.13924353 0.29092407
000330 db bc 1e 3e 58 3e 87 bd 06 0f a6 3e 17 33 c1 3e
       0.1550173 -0.06603688 0.32433337 0.3773429
000340 30 64 c7 3e 83 f0 9f be d6 75 83 be 8c e8 99 bd
       0.38943624 -0.31238183 -0.2567584 -0.07515058
000350 ea 61 5f be bf 59 38 3e 17 d7 42 3e 37 01 ad bd
       -0.21814695 0.18002985 0.19027363 -0.08447497
000360 35 8b b3 be 2c c0 b2 3e 16 4f 7b 3e 40 ae 32 3e
       -0.35067144 0.3491224 0.24541888 0.17449284
000370 ce 5f 50 3e 59 43 a6 bc fa 15 86 3e 6b 29 ae be
       0.20349047 -0.020295786 0.26188642 -0.34015974
000380 48 46 c0 3e 2c 2a 3e 3e 50 f4 4a 3d ac 15 ac 3e
       0.3755362 0.18570775 0.0495494 0.33610284
000390 e2 c7 cb 3e 07 fc 58 3e 03 a6 ef 3d 1a bf 7d 3e
       0.39800936 0.21189891 0.11701586 0.2477993
0003a0 1c ed 09 be b5 65 1e 3e a4 e2 6b be b2 bb 6c be
       -0.13469356 0.15468486 -0.23035675 -0.23118475
0003b0 be 2f 38 be 11 b5 64 be 75 e6 25 3e 15 11 9d bd
       -0.17986962 -0.22334696 0.16201194 -0.07669274
0003c0 a8 7a 73 be 1c 5d b8 be f0 bf e0 3d 1f c2 e7 3e
       -0.23777258 -0.36008537 0.10974109 0.4526529
0003d0 b8 d6 87 3e 60 89 da be 32 0f bc be c8 15 b1 be
       0.26531005 -0.42682934 -0.36730343 -0.3458693
0003e0 33 66 d3 3e 04 ac 89 bd 71 78 13 be 70 fd 04 3c
       0.4128891 -0.067222625 -0.14401414 0.008117065
0003f0 3e 50 d7 bd 3e 4a 42 3e 14 76 26 3e 57 65 76 bb
       -0.10513352 0.18973634 0.1625598 -0.0037597024

encoder.0.bias f4 [32]
000000 1c fa ff ba 22 9d c8 3d e4 e5 ca 3e 6d 8e a1 3e
       -0.0019529494 0.09795596 0.39628518 0.31553975
000010 41 85 55 be a7 91 f1 3d dc df 78 3e 2f 5c 22 3d
       -0.20851614 0.11795359 0.24304146 0.039638694
000020 59 16 b3 3e 0e ee 16 3e 34 73 ae 3e 2d 1a b2 3e
       0.34977987 0.14739248 0.34072268 0.34785596
000030 a8 0a 08 3e fb f2 68 3e 02 ae dc 3c 15 5a 38 3e
       0.13285315 0.2274894 0.026938442 0.18003114
000040 b3 be 1c 3e 38 7c 99 3d 27 19 ce 3d c0 db a4 3e
       0.15307121 0.07494396 0.10063391 0.32198906
000050 8e bf 83 3e b3 ca 84 3e 38 7d 85 be 5b f4 92 be
       0.25732082 0.25935897 -0.26072097 -0.28702053
000060 46 d6 76 3e 4f d3 38 3e 8b 56 62 bd f4 e9 92 3e
       0.24105176 0.18049358 -0.055258315 0.28694117
000070 d8 d6 9d 3e de 08 b3 3e 2c 4a c5 bd 0a d1 29 3e
       0.30827975 0.34967703 -0.09633288 0.16583648

encoder.2.weight f4 [8, 32]
000000 68 32 91 bd 95 d7 80 3d b1 1a 0c be 25 c2 64 be
       -0.07089692 0.06291119 -0.13682057 -0.22339685
000010 b2 90 54 3e 60 9f 4d 3b 0c 98 58 bd 51 4c 9a bc
       0.20758322 0.0031375512 -0.05287938 -0.018835219
000020 51 00 0c 3c 9d 05 4b 3d f1 20 a8 3c b9 e5 9f 3d
       0.008544997 0.0495659 0.02052352 0.07807488
000030 1b e8 b8 bc 65 bd 1b 3e 6c 94 76 3c 71 af 7b bd
       -0.022571614 0.15208967 0.015050035 -0.06144661
000040 c0 76 94 3e 0f b3 79 3e b4 4e 06 3d dd e0 05 be
       0.2899685 0.24384712 0.0327899 -0.1307406
000050 8a b6 93 3e 8f 30 9e 3c 65 d0 bf 3d 98 47 0a 3e
       0.28850204 0.019310264 0.0936592 0.13503873
000060 c1 24 81 be dc 51 86 3d ea db d1 bd b7 5a 08 3e
       -0.25223354 0.06558582 -0.102470234 0.13315855
000070 df 4e ca 3d 39 b9 bb bd f2 e1 e3 bd e4 e1 24 3e
       0.09878325 -0.09166188 -0.1112708 0.16101795
000080 19 87 e2 bd 15 9d 1c 3e 94 f7 22 3e 9e fa 64 bd
       -0.11060924 0.15294297 0.15914756 -0.05590307
000090 4d a3 91 bc 6e 2f 0e 3d d5 1d 36 bd 39 cd f5 3d
       -0.017778063 0.0347132 -0.044462044 0.12002034
0000a0 94 bc 91 bc c8 7d a4 bd 2c 7f ab 3d fc 7c 00 3e
       -0.017790116 -0.08031803 0.083738655 0.12547678
0000b0 f4 06 ac bd 48 d3 11 3e f5 33 73 bd 3c 89 6f bd
       -0.08399764 0.14240754 -0.059375722 -0.058480486
0000c0 d7 0f e4 bc 1c 48 24 3e e2 4b 96 3d bf a4 6e bd
       -0.027839584 0.16043133 0.07338692 -0.058262583
0000d0 72 ff 3b be a2 e0 15 be 04 ba 8b bd 3c 83 5f bd
       -0.18359163 -0.14636472 -0.06822589 -0.054568514
0000e0 4a 4e 12 3c 21 bb 3c 3e ca 94 1e 3e e5 7f 52 3c
       0.008929798 0.18430759 0.15486446 0.012847875
0000f0 3a 93 17 3e 92 81 8c 3d da fb 3a be 8d ac 1f 3d
       0.14802256 0.06860651 -0.18260136 0.038982917
000100 de 79 b2 3d aa 0f 6a bd 96 d0 9e 3d 55 da 50 3e
       0.087146506 -0.057143845 0.07754628 0.20395787
000110 03 a3 d1 3d 8c 85 0d 3d 84 e6 7c be 17 8d 1d 3e
       0.1023617 0.03455119 -0.2469731 0.15385853
000120 00 6b 83 3d f0 d7 06 be dd d8 d1 bd 2f 92 6b 3e
       0.06416893 -0.13168311 -0.102464415 0.23004983
000130 7d c1 a3 bd 71 39 fe 3d d0 f9 10 3e 59 cc 33 3e
       -0.07995889 0.124133 0.14157796 0.17558421
000140 aa 05 7f bd 95 02 20 3e 1d e6 39 bd c5 80 44 3e
       -0.06226126 0.15625985 -0.04538547 0.19189747
000150 ae 4f 4d 3e 7b ca 88 bd e2 8e cb bd b4 e2 84 3d
       0.20049927 -0.06679245 -0.09939362 0.06488553
000160 49 98 a9 bd 79 c1 6a 3e 64 d2 e1 3d fa c2 0c bc
       -0.08280999 0.22925366 0.11026457 -0.008591408
000170 9c 5b 2a 3e 87 46 9c bd 78 bb 99 3c de 14 70 3d
       0.16636509 -0.076306395 0.01876615 0.05861365
000180 e4 35 8f 3c 25 d9 15 bd a6 cd 93 3d 65 2d 89 3d
       0.017481752 -0.03658404 0.07216959 0.066981114
000190 c8 04 3b 3c 90 81 e1 3d 0c 45 8a 3d dd 8c bc bd
       0.011414714 0.1101104 0.06751451 -0.09206555
0001a0 20 0f 04 be 9b 65 a2 bd 46 ed 56 be 49 84 57 3e
       -0.12896395 -0.07929536 -0.2098895 0.21046557
0001b0 25 ca cc 3d 03 30 ef 3d 7c 1a 34 3d 4f bc 0a 3e
       0.099994935 0.116790794 0.04397057 0.13548397
0001c0 d6 85 a9 3c f8 0c 12 be 82 3e a4 bc 95 bf f4 3d
       0.0206937 -0.1426276 -0.020049337 0.11950604
0001d0 ce b0 d9 3d 41 82 2c 3e 46 78 23 be b6 49 69 bd
       0.10629426 0.16846563 -0.1596385 -0.05695506
0001e0 bb 77 76 3e bf 4f 89 bd eb 6d 61 3e 3d a0 11 3d
       0.24069111 -0.067046635 0.22014587 0.035553206
0001f0 2b ed 33 3d 23 78 6e 3e 21 0f 88 be 46 0b 44 3e
       0.043927353 0.23288016 -0.26574042 0.19144925
000200 7e 6c 2c 3e 04 b5 ef 3d 45 8d 80 3d af ef 6b 3e
       0.16838261 0.11704448 0.06276945 0.23040651
000210 1d b8 7e 3e 9f 16 59 3e ad 10 be bd 3c 9d 0b 3e
       0.24874921 0.21200036 -0.092805244 0.13634199
000220 df 17 db 3d 94 e8 09 3d 50 ec 01 be d9 9c 08 be
       0.106979124 0.03366907 -0.12687802 -0.13341083
000230 6d dc 59 be 11 10 fb 3c 52 0c e0 bd 54 7a 5c bc
       -0.21275492 0.03064731 -0.1093985 -0.0134569
000240 02 5c b4 bc 67 4f 06 be d4 a5 62 3b 44 f7 ee 3d
       -0.022016529 -0.13116227 0.0034583705 0.11668256
000250 cd 5a 56 3e d0 65 8f bd e6 71 5f 3d 18 90 05 3e
       0.20933075 -0.07001841 0.05455198 0.13043249
000260 ec dd f2 3d ed c4 48 3e fc f3 66 3e 2b 55 bc bd
       0.118587345 0.19606371 0.2255401 -0.09195932
000270 6c 60 ac 3d 94 de af bd ec ab 63 3e aa 72 06 3d
       0.084168285 -0.08587375 0.22233552 0.032824196
000280 e1 ac 00 3e e3 4f 35 be a7 02 17 be 6e ee ac 3d
       0.12565948 -0.17706256 -0.14747106 0.08443914
000290 e3 01 5b 3d b1 a7 e5 3d ef 67 2a be 1a 4c 5d 3e
       0.053468596 0.11213625 -0.1664121 0.21611062
0002a0 d3 f3 f8 3d e2 36 b5 bd c5 e5 53 3e a0 ef e7 bd
       0.12155881 -0.08848359 0.20693119 -0.11325002
0002b0 82 66 8a be bc da 9a 3d 89 7a 1f 3e fb ef 2b be
       -0.27031332 0.075612515 0.15574087 -0.16790764
0002c0 4a 93 7e bc 43 db 09 be c9 bd ff bb 71 fa 08 3e
       -0.015538046 -0.13462548 -0.0078046066 0.13376786
0002d0 38 df bc bc fa 5d b3 bd c2 1d 22 3e 8e 98 25 3d
       -0.023055658 -0.08758159 0.15831664 0.04042869
0002e0 18 10 2e 3d 4c a6 49 3c d6 7d 41 bd 7e 5a 6b bd
       0.042495817 0.012307715 -0.047239147 -0.057459347
0002f0 59 bc 01 3e 02 e4 fe 3d 96 02 9b bd 0a 18 ef 3d
       0.12669505 0.12445833 -0.075688526 0.11674507
000300 7e 8d ef bd 04 2d 48 3d 04 9c 37 3d 20 84 b7 bc
       -0.11696909 0.048871055 0.044826522 -0.02240187
000310 68 02 6d 3d 56 3b 9d bd 6e df a0 3d 1d ab 09 be
       0.057863623 -0.07677333 0.07855116 -0.13444181
000320 30 cb f6 bc cd 2e 03 3e ba b2 f7 bd 17 86 1f be
       -0.030126184 0.12810822 -0.12094636 -0.15578495
000330 4c 83 57 bd 60 e4 aa bd 23 7d 11 be d0 f8 4a 3d
       -0.05261545 -0.0834434 -0.14207892 0.049553692
000340 3a 18 9a 3d 68 9f 36 3d 90 96 37 bc 9e 57 c3 bd
       0.07524152 0.044585615 -0.0112053305 -0.09538196
000350 8c 4e da bd d0 78 0b bc 4a 5a f4 3d c9 81 23 3e
       -0.10659513 -0.008512691 0.11931284 0.15967478
000360 8c 99 72 3d 7e 52 f2 3d b8 3d 16 3d b8 83 c8 3c
       0.059228465 0.118321404 0.036679953 0.02447687
000370 fe e6 f2 bd 34 8a 11 3d fd 85 82 bd 7c 62 39 3d
       -0.118604645 0.03553219 -0.063732125 0.045259938
000380 5b cc de 3b 50 a6 30 3d 67 a1 0a 3e c1 0e 63 3e
       0.0067992634 0.043127358 0.13538133 0.22173597
000390 56 3a f3 3d 32 0c ad 3c d6 e5 81 3d 15 6a 8e bc
       0.11876361 0.02112398 0.06342666 -0.017384568
0003a0 c6 27 4c bd 77 38 6d be 41 ce 38 3e 1d 25 44 3e
       -0.04984262 -0.23166071 0.1804743 0.19154783
0003b0 08 5d b3 bd f6 cd 12 3d 70 e7 ac bd 8f af 28 3d
       -0.08757979 0.03584095 -0.08442581 0.04118305
0003c0 67 df 90 bc 28 e3 78 3e 6d bb b3 bc 3d 7a 19 3d
       -0.017684652 0.24305403 -0.021939958 0.03747009
0003d0 06 9b ee 3d 1c 5c 03 be 37 30 47 be 40 ee f1 3d
       0.11650662 -0.12828106 -0.19451986 0.11813021
0003e0 1e 3e aa 3d cc a3 0d 3e 68 57 22 3d dc b5 07 3d
       0.08312629 0.13832015 0.03963414 0.03313242
0003f0 98 90 48 ba 6a f0 09 3e 4e c0 0e be 0f 0c b9 bc
       -0.00076509407 0.13470617 -0.13940546 -0.022588758

encoder.2.bias f4 [8]
000000 d8 13 4b 3e 25 10 54 bd dd 7b df bc 69 b8 80 3e
       0.19831789 -0.05177321 -0.027280742 0.25140694
000010 66 41 6a 3d 1b 4d 75 3e 61 25 29 be a2 dc 95 bd
       0.057191275 0.23955195 -0.16518165 -0.07317473

decoder.0.weight f4 [32, 8]
000000 80 28 57 be 73 d3 76 bd c7 e3 72 3d 45 f8 34 be
       -0.21011543 -0.060260247 0.059299257 -0.17672832
000010 99 7a 65 be f8 73 e7 bd d1 26 98 3e 9f ef 75 3e
       -0.22410049 -0.11301416 0.29717115 0.2401719
000020 20 47 a5 3e 25 c2 a9 bd 29 fc b3 3e bf 5a d2 be
       0.32280827 -0.08288983 0.3515332 -0.4108486
000030 4d 6b 7a 3e 13 f1 9f 3d 00 52 a2 bc 40 2e d0 bc
       0.24454994 0.07809653 -0.019814491 -0.025412679
000040 8a 96 a7 3e 4f f7 a9 be 2d 2b 35 bd 3f dd 71 3e
       0.3273204 -0.33196494 -0.04423063 0.23619555
000050 aa 9b 99 3e f6 a6 69 3e 00 ee 78 bc 2e 90 62 be
       0.30001575 0.22817597 -0.015193462 -0.22125313
000060 41 da 48 bd cf f0 60 bd 2c 1e 42 3e 34 8b 67 be
       -0.04903627 -0.054917153 0.18956822 -0.22611696
000070 0b 7c 05 bd 3d a0 9c bd d0 5c 4f 3d 00 ef af be
       -0.032589 -0.076477505 0.050625622 -0.3436203
000080 46 fc 70 3e 9c d8 6e be ac 93 b6 bc 5e 37 d9 be
       0.23533735 -0.23324817 -0.022287212 -0.42425054
000090 02 e1 a1 3e 17 86 3b 3e be 80 ac be 51 6b a8 3e
       0.3161698 0.1831287 -0.33691972 0.32894376
0000a0 d0 ac 46 be 96 18 27 be 20 21 b1 bd 52 53 62 3e
       -0.1940186 -0.16317973 -0.08648896 0.22102097
0000b0 03 4b 89 be a3 28 d0 bd 84 1b 34 be cf 29 4b be
       -0.26815042 -0.10164001 -0.17588621 -0.19840167
0000c0 f2 f3 d6 bd 27 ea 9a 3e d5 c3 8e bd 91 cc aa be
       -0.104957476 0.3025677 -0.06970946 -0.33359197
0000d0 ca 28 c9 3e 53 32 37 be 9c 22 b5 3d 88 f6 32 3c
       0.39288932 -0.17890291 0.08844492 0.010923035
0000e0 1b 72 37 3d 0f e3 93 be 54 51 07 be d6 ee 86 be
       0.044786554 -0.2888417 -0.13214618 -0.26354092
0000f0 fd ac 73 3d 3a 4a 75 3e 00 e9 9f ba 98 0b 9a be
       0.059491146 0.23954096 -0.0012200177 -0.3008697
000100 df 9e a6 be da 5b a9 3d 9e 73 6f 3e b5 08 e9 3e
       -0.32543084 0.082694724 0.23383948 0.45514455
000110 80 49 52 3e 2a 32 61 be e8 22 36 be 9c 90 91 3d
       0.2053585 -0.21991792 -0.17786753 0.0710766
000120 c7 54 8a bb dd 45 88 3b a1 19 1a be 30 4c 8d 3d
       -0.004221532 0.004158719 -0.15048839 0.06899297
000130 19 a7 97 3e f6 1b 84 be 50 38 75 3d 9a b0 15 3e
       0.29619673 -0.25802583 0.059868157 0.1461815
000140 60 00 4e 3d c2 2b 32 be 03 d0 8f be 0e 6d b3 be
       0.050293326 -0.17399505 -0.28088388 -0.3504414
000150 78 d3 8f bd 9e 21 68 be 91 79 a6 3e 10 75 df 3d
       -0.07022756 -0.22669074 0.32514623 0.10911
000160 9d 35 5d be db 4a 46 bd 2c 3a 69 be 1e 76 8b bd
       -0.21602483 -0.04841123 -0.22776097 -0.068096384
000170 29 14 dc 3c 4c 73 8d be aa 1d b0 be 62 ed a0 3e
       0.026865082 -0.27627027 -0.34397632 0.3143111
000180 a4 90 52 3e 80 1c b4 be e5 d6 30 3c a8 7a 0c bd
       0.20562989 -0.35177994 0.010793422 -0.03429666
000190 3a 09 98 be 1a dd b0 be f6 d7 4a 3e d5 1e de bd
       -0.2969454 -0.34543687 0.19808945 -0.108457245
0001a0 fb 92 60 3e be 19 2a be 5a d5 0c be 24 94 94 bd
       0.21931069 -0.16611382 -0.13753262 -0.07254818
0001b0 9e 28 be 3e e6 9f c6 3e b5 a2 92 3e d3 91 3d be
       0.37140363 0.38793868 0.2863976 -0.18512659
0001c0 55 cf 10 be 94 b0 81 be bb 0e 86 be cf 9a a4 be
       -0.14141591 -0.2533003 -0.26183113 -0.3214936
0001d0 2c 9e a2 be 20 88 ae bd 3e 82 a4 be ba 8b 39 3e
       -0.317613 -0.085220575 -0.32130617 0.18119708
0001e0 9e e6 3d 3c 59 d4 b2 3e c1 4d 85 3e c5 44 c0 be
       0.011590628 0.34927633 0.26035884 -0.37552467
0001f0 60 ef 32 be 9e 8e c5 3e aa 67 39 3e dd a1 cf 3c
       -0.17474127 0.3858537 0.18105951 0.025345737
000200 52 cb 01 3e b4 b6 9e bd 2f 6c 54 be 0c f2 19 be
       0.12675217 -0.077496916 -0.20744394 -0.1503374
000210 e8 ff 83 be a8 f4 6b 3e 0b b7 9e 3e 5d ed 5a 3e
       -0.25781178 0.23042548 0.30999026 0.2137961
000220 48 63 aa 3e 37 ec 59 bc fb 7f 81 3e 46 06 39 3e
       0.3327887 -0.013300947 0.25292954 0.180688
000230 2c e8 c3 3e 2b 9d d5 3e 40 32 db 3b 18 bb 0d 3e
       0.3826307 0.41721472 0.00668934 0.13840902
000240 2d 61 f9 3d 13 9b c4 bd a5 2b 1b 3e f9 43 85 be
       0.12176738 -0.095998906 0.15153368 -0.26028422
000250 a7 6f 52 bb 96 ed f9 bb b6 df 7a 3e e2 6a d9 bd
       -0.0032110007 -0.0076271994 0.24499401 -0.106160894
000260 54 14 12 3e f2 f8 a4 bd 3a a9 ae 3e 49 87 81 bc
       0.14265567 -0.08055295 0.34113485 -0.01581158
000270 8e 0f c4 3e 07 65 7b 3e 38 10 42 3d fe c9 fb 3d
       0.38293117 0.24550258 0.04737875 0.12294386
000280 9a 89 6e bd 3c 5c 9b 3e 06 ce d4 3e a5 19 5c 3d
       -0.058236696 0.30343807 0.41563433 0.053735394
000290 27 34 83 3e 99 70 12 be c0 c6 ce bc 44 41 b2 bc
       0.25625727 -0.14300765 -0.025241256 -0.021759637
0002a0 a9 3a 99 be 1a 65 58 be b2 59 19 bd b0 ba fc bc
       -0.29927567 -0.21132317 -0.037439056 -0.030850738
0002b0 e0 6d af be 40 4f 3b bd a8 30 59 3d 10 ad 94 3e
       -0.34263515 -0.045729876 0.053024918 0.29038286
0002c0 14 99 3c 3e e1 45 bb bd be 9f 90 3c 6f a0 ab bd
       0.1841777 -0.09144188 0.017654296 -0.0838021
0002d0 bb d6 b6 bc 41 86 b0 3e a2 ef 57 3e 7e 87 ae ba
       -0.022319188 0.34477428 0.21087506 -0.0013315526
0002e0 7b 60 84 3d 02 fb b1 bb 4b 8a 99 bd c7 bd 73 3b
       0.06463715 -0.005431534 -0.074970804 0.0037191974
0002f0 22 ab 9c be ce 75 ab 3e 1b 6b 95 be c3 49 93 3e
       -0.30599314 0.33488315 -0.29183277 0.28767213
000300 4e 00 d2 be d5 62 d5 3d 2d 43 bd 3e cf 32 a6 3e
       -0.41015857 0.10419241 0.36965314 0.3246064
000310 70 f1 12 3d cc bb 8d be 7e 7e 77 be 57 41 33 bc
       0.035874784 -0.2768234 -0.24169347 -0.010940871
000320 63 af 1a 3e 19 03 e5 bc b7 ad 9c be cf 3d e2 bd
       0.15105967 -0.027955579 -0.30601284 -0.11046945
000330 cf fe 91 3e 62 04 cb be e3 9c 94 3e 1e 0a 22 3e
       0.28514716 -0.3965178 0.29025945 0.15824172
000340 8c f7 38 be 5d c6 a0 be 0b 73 3c be aa 9c b7 3e
       -0.18063182 -0.3140134 -0.1840326 0.35861713
000350 95 50 19 3e 8d 19 72 bd 70 6c a0 3c c2 2d 83 3e
       0.14972146 -0.0591064 0.019582957 0.25620848
000360 de ea ed bd c7 73 bc 3d 0d 9e 22 3e b2 05 ac 3e
       -0.11617063 0.0920177 0.15880604 0.33598095
000370 56 12 95 3d 6e 0f 44 be 2e 90 6d 3e fc 2a 24 3c
       0.07278888 -0.19146511 0.23199531 0.010020014
000380 9d ab c3 3e 7e 7b 86 3e 9a 3a aa 3e 7a 8d 26 3e
       0.38216868 0.26266092 0.33247834 0.16264907
000390 7b 62 13 be 3a 6c 19 3e e0 3d dd 3d a6 aa 93 3e
       -0.14393036 0.14982691 0.10802817 0.28841132
0003a0 8a d3 bd 3e 0a 9f 96 3c 89 da 3c 3e d1 80 a3 3e
       0.37075454 0.018386383 0.1844274 0.31934217
0003b0 ca a4 24 3e 78 8c a0 be d8 e2 89 3d ea a5 d8 3e
       0.16078487 -0.3135717 0.0673272 0.42314082
0003c0 b0 2c d4 bc 56 a3 0b 3e 9e d2 89 be 8a c9 b2 3e
       -0.025900215 0.13636526 -0.269185 0.34919387
0003d0 09 ac 9c be f0 32 45 3e c7 0b a2 be 90 26 cc 3e
       -0.30600002 0.19257712 -0.3164961 0.3987317
0003e0 a8 6a 62 3e ac eb c4 3d 95 36 6d 3e 06 ea 78 be
       0.22110999 0.09615263 0.23165353 -0.24308023
0003f0 ee 19 8b 3e fa 1b d3 3d 30 4e 92 be b9 5f 13 3e
       0.2716822 0.103080705 -0.28575277 0.14391984

decoder.0.bias f4 [32]
000000 4e 99 4c 3d de 93 86 3d 53 24 0d be 38 4f da bd
       0.04995089 0.06571172 -0.13783388 -0.10659641
000010 6a e1 7a bc ee f3 9e 3d c5 d5 7b 3d d5 f8 57 be
       -0.015312532 0.0776137 0.061483163 -0.21091016
000020 ad a5 20 3d 35 be 6e 3e 14 37 97 be 42 b7 c8 3d
       0.0392205 0.23314746 -0.2953421 0.09800579
000030 34 12 7c be 80 36 14 3d 57 87 92 be 54 cd 7f be
       -0.24616319 0.036184788 -0.2861888 -0.2498067
000040 87 fa 8c be fb 23 63 bd 2a a1 84 3e f3 03 db bd
       -0.27534887 -0.055454236 0.25904208 -0.10694113
000050 c1 27 3e bd 9b de 06 be bc ae 8c 3d ae 9e 92 3e
       -0.04642463 -0.13170855 0.068692654 0.28636688
000060 0b 2e 49 3e 32 2a 8d 3c 79 15 96 be 91 20 91 be
       0.1964647 0.017232034 -0.29313257 -0.2834516
000070 32 8c b4 bd ff a4 ac bd 15 86 a8 3e 42 ec 65 3d
       -0.08815803 -0.08429908 0.32914796 0.056133516

decoder.2.weight f4 [8, 32]
000000 be e2 1a 3e 78 5c 22 3e 0b d7 8e 3e 5d 19 92 3d
       0.15125558 0.15855587 0.2789844 0.07133744
000010 13 b3 27 bc 9f 0b 2d be b1 86 30 3e 27 72 2b bd
       -0.010235566 -0.16898964 0.1723888 -0.04185691
000020 5d 4a 58 bd 4d 74 53 be b6 58 df 3d c1 93 55 3c
       -0.052805293 -0.20649834 0.10905592 0.013035716
000030 3d c1 2c be f6 30 ad 3d b3 7a f3 bd 26 c3 04 3e
       -0.1687059 0.08456604 -0.118886374 0.12965068
000040 34 b7 f6 3d 83 3f 70 3e b5 01 05 be 1b d0 8d 3d
       0.12046662 0.23461728 -0.12988932 0.069244586
000050 c5 4f a7 3d 39 1d a1 3c b9 b5 d7 3d 8a 4b 1b be
       0.08169512 0.019667255 0.10532708 -0.15165535
000060 79 3e e0 bd 5e 8b bf 3c 35 4c 59 bd 57 9b 48 bd
       -0.10949416 0.023381885 -0.053051192 -0.04897627
000070 10 f1 34 3e 5a ef d8 bc 13 a7 44 be 65 2c c5 3c
       0.17670083 -0.02648132 -0.19204359 0.02406902
000080 72 91 04 3e 7d 10 9b 3d 1a ea 05 3e c9 3b df 3d
       0.12946108 0.07571504 0.13077584 0.10900075
000090 e0 ef c7 bd 06 83 4e bd 37 e1 41 be 64 50 3e 3d
       -0.097625494 -0.050417922 -0.18933569 0.046463385
0000a0 d0 55 70 be b9 6d 8e bc 74 dc 25 be 59 7a 59 be
       -0.23470235 -0.017386304 -0.16197377 -0.21238078
0000b0 d8 63 cb 3d 6e 0c be bd 34 aa 09 be 7f 7e 0c be
       0.09931153 -0.092797145 -0.13443834 -0.1372013
0000c0 b5 a2 cb bd d5 5e 8b 3d 6c b5 14 bd 28 b7 2a bd
       -0.09943143 0.06805197 -0.03630583 -0.041678578
0000d0 df 77 bf bd cf b4 bb bb ef 34 ee 3d c4 6c ef 3c
       -0.093490355 -0.005728341 0.1163119 0.029226668
0000e0 f6 9f 8e be b7 51 3b 3d 6a 26 80 bd 31 c6 a5 ba
       -0.27856416 0.045732226 -0.06257327 -0.0012647567
0000f0 c0 1f 76 3e 46 7c 6f 3e 77 8a 73 3c c7 a6 14 3e
       0.24035549 0.2338725 0.014864556 0.14516746
000100 14 d1 21 be 1e 47 ea 3d 92 76 87 bd e2 73 22 3d
       -0.15802413 0.11439346 -0.06614412 0.039661296
000110 a6 e1 85 bd f3 b6 43 3a f6 f9 b9 3c d5 47 a9 ba
       -0.0653718 0.0007465921 0.022702198 -0.0012915084
000120 26 dc 8b bd fe 58 83 3b c2 c2 71 bd f9 82 52 3d
       -0.06829099 0.0040084114 -0.059023626 0.051394437
000130 74 ce 28 3e 73 70 60 bd ad cb 26 be 2e 9c dd bd
       0.16485006 -0.05479474 -0.16288634 -0.108208045
000140 da fb d7 3d 43 ce cb bc d8 24 0f bd 3f 2c c3 3d
       0.10546084 -0.024878627 -0.034947246 0.09529924
000150 ad 25 0c be c0 5b 2f be 9b d0 35 3d 05 88 09 bd
       -0.13686247 -0.17124844 0.044388395 -0.033576984
000160 73 f1 de 3d 6c f4 66 bd 87 22 c9 bb 33 ef 28 be
       0.108858965 -0.056385443 -0.006138149 -0.16497497
000170 1c bc cb 3d 6d d9 84 3d 02 06 7b bd 37 63 9b bd
       0.099479884 0.06486783 -0.061285026 -0.07587283
000180 95 c8 ea 3d cd 9d 4e 3e d6 d4 c5 3d d7 8d f3 bc
       0.11464039 0.20177384 0.09659736 -0.02973072
000190 70 fc 89 3d 6d a9 d1 bd ea e9 21 3e b1 e9 26 3e
       0.06737602 -0.102373935 0.15811887 0.16300084
0001a0 3d eb 6b be da 84 a0 bc c4 0a 18 bd 2e e5 31 3d
       -0.23038955 -0.019594599 -0.037119642 0.043431453
0001b0 35 61 0d be a7 08 95 3e fc ad 07 3d 9d c6 20 3e
       -0.13806613 0.29108164 0.03312491 0.15700765
0001c0 f6 b6 09 3e d7 92 f6 3d 1a c6 6c 3e 82 69 32 3d
       0.134487 0.12039726 0.23122445 0.04355765
0001d0 f4 7f 16 3d 87 38 23 3d b4 86 86 3e 55 11 77 bd
       0.03674312 0.03984883 0.26274645 -0.060319263
0001e0 fd f8 e5 bd c2 ac 1c be 91 ae dc bd ce 7d 61 be
       -0.11229131 -0.15300277 -0.107754834 -0.22020647
0001f0 4d 6d ba bc 9b ad 66 be 31 e5 3a be 6a e8 04 3e
       -0.022757197 -0.22527163 -0.18251492 0.12979284
000200 63 55 08 3e 85 e0 3f 3e 2e 1c 06 bd e1 0d 32 3d
       0.13313822 0.18737991 -0.032741718 0.043470267
000210 68 b2 61 3d d2 58 03 be 92 40 02 3e 7e 80 92 bd
       0.055101782 -0.12826851 0.12719944 -0.07153414
000220 4c 93 56 bd 81 03 2f be 20 f3 03 bd 3e 36 70 3d
       -0.052386567 -0.1709118 -0.032214284 0.05864548
000230 99 2e 2a be e9 a9 88 bc c1 f7 04 3e ac e7 ed 3d
       -0.16619338 -0.016682582 0.12985136 0.116164535
000240 be eb 29 bd 24 70 2c 39 4e bc 96 3c 6b bc 5d 3e
       -0.041484587 0.00016444974 0.018400338 0.21653907
000250 4b 61 ef bb 93 a9 9f bc aa 1c 2b 3c fc 34 ac bd
       -0.0073052994 -0.019490039 0.010443846 -0.084085435
000260 13 0b 54 be 72 f0 e8 bc 70 7a c2 3c a4 fc 07 be
       -0.2070735 -0.028434966 0.023740023 -0.13279969
000270 7a 00 5b 3e 18 5c 05 3e a2 f8 8a be fe c3 9f 3d
       0.213869 0.13023412 -0.27142817 0.078010544
000280 71 d7 03 be 92 16 4b 3e 7d 41 c8 bd f4 60 1a be
       -0.12875153 0.19832829 -0.09778116 -0.15076047
000290 f1 73 27 3e 50 f0 bb 3d 45 5d 1f be f2 52 e4 3d
       0.16352822 0.09176695 -0.15562923 0.11148633
0002a0 d4 7e 03 be b5 7e 63 be c2 f1 f1 3d 89 d3 d2 3d
       -0.1284135 -0.22216304 0.1181369 0.102942534
0002b0 52 7d 3a 3e fc e0 5c be 48 8d 2d 3d 92 4c 5f 3e
       0.18211868 -0.215702 0.042371064 0.21806553
0002c0 11 8d d0 bd a9 5b cd 3c d6 74 81 bd 68 26 d8 3d
       -0.10183156 0.025068121 -0.06321113 0.105542004
0002d0 99 59 3d 3e 02 ab 08 be ac d3 f6 3d 01 61 30 3c
       0.1849121 -0.13346484 0.12052092 0.010765315
0002e0 66 d3 b9 bd 8f bd 0b 3e 71 59 9c 3d 20 e1 22 be
       -0.09073524 0.1364653 0.07634247 -0.15906191
0002f0 2d f6 2c 3e 0c a3 11 3e e0 4c 9e 3d ce ea 96 3d
       0.16890784 0.14222354 0.077295065 0.07369004
000300 fc 39 9a 3d 2f 4e 87 bd 4e 2c bd bd bb 64 12 bd
       0.07530591 -0.06606709 -0.09236966 -0.035740595
000310 71 34 bc bd cf da 46 be 75 1a ee bd 50 69 27 3e
       -0.0918969 -0.19419406 -0.1162614 0.16348767
000320 06 c7 44 3e 5c 31 84 3a 00 5f 29 bb 04 5d 81 3d
       0.19216546 0.0010085511 -0.0025843978 0.063165694
000330 b1 63 a1 3d 7f 65 90 bd 0a 57 67 bd 41 1c a4 bd
       0.07880343 -0.07050609 -0.05647949 -0.080132015
000340 e0 56 e6 bd 23 49 ec bc 5b 27 6d be 6d 80 ce 3d
       -0.11247039 -0.028843468 -0.23159544 0.10083089
000350 c0 c9 2c 3e ff 86 7a 3c 82 5a 66 bd 28 44 95 bd
       0.16873837 0.015290975 -0.05623866 -0.072883904
000360 a4 30 76 3e 08 44 21 be 9e 5d 25 bc 01 17 cf 3d
       0.24041992 -0.15748608 -0.010093121 0.101118095
000370 10 89 08 bd b1 d6 76 3e 25 51 44 bd 77 d8 99 3c
       -0.033333838 0.24105336 -0.047928948 0.018779976
000380 0b 00 32 bd c9 30 d9 bd a8 7d 12 be 37 ce 2e bd
       -0.043457072 -0.10605008 -0.14305747 -0.04267713
000390 d7 5b ee 3d 0f 8f c8 3d b2 00 2b 3e 67 1d 9e 3d
       0.11638611 0.09792911 0.16699484 0.07720452
0003a0 ac 88 b6 3d af 15 5b 3d c6 18 88 bd 70 1d 37 3e
       0.08912787 0.053487476 -0.0664535 0.17882323
0003b0 f7 3a a9 3c 73 90 2f 3e 96 75 5a bd 2a d6 4a 3d
       0.020658 0.17144947 -0.053334795 0.04952065
0003c0 c3 42 4b be 3b c7 d6 3d 04 3c 8a be 8a 1c 17 3e
       -0.19849686 0.10487219 -0.26998913 0.1475698
0003d0 20 cf 35 3e 2d 64 51 3d b6 96 a9 3c 05 3e 6c be
       0.17754793 0.051120926 0.020701747 -0.23070534
0003e0 98 38 b1 3a ad 74 0f be fb 1c 0e bd 06 ac 06 3c
       0.0013520895 -0.14009352 -0.034695607 0.0082197245
0003f0 0d d6 2e bc 30 c4 33 3e c1 2f 5d be 52 c3 2e 3e
       -0.010671151 0.17555308 -0.21600248 0.17066696

decoder.2.bias f4 [8]
000000 99 d4 96 bd 39 58 6d 3a b8 dd f5 3b 4d 8c 1a bd
       -0.073647685 0.0009053979 0.0075032376 -0.037731458
000010 d8 dd ba bb 1c 23 46 be 92 cb 6a bd ee 62 21 be
       -0.0057027154 -0.1934933 -0.057323046 -0.15760395
