new_dfy/internal/model_load_lstm.pth (torch, 212073 bytes, 9 tensors)

lstm.weight_ih_l0 f4 [256, 8]
00000000: 5910 3fbd 5392 653b 753d 383d afc0 2abd
00000010: ed72 023e 9238 2e3d 6ca9 193e 60d1 c43b
00000020: c279 dc3c 7f9c 6dbc a32d 8e3d 7e61 63bd
00000030: 9f9f afbd 8f0e b8bd e8bd 6fbc c934 6abc
00000040: 9334 de3d bae2 a6bd c445 6d3d b1a9 d9bb
00000050: ab00 783c 6a0e c53d b26b f43c 955a e33d
00000060: b797 65bd 6af8 513c 6bb9 063e a427 3cbd
00000070: d1be 46bd 3e15 cc3c 0914 88bc 6e78 9a3d
00000080: 79ec 7abc 482b b23d 9750 a83d ad92 c73a
00000090: 953e 9b3d 4136 0ebc 6d05 bb3d cda6 83bd
000000a0: 2690 023e 42cf e2bd d0e0 0c3e aedf 983d
000000b0: 3bbd 093e d729 703c e760 47bc 5631 213d
000000c0: f482 d03d 04c0 363d 56b0 a0bd 75af 953d
000000d0: 1383 d9bc f638 6b3b 0cd3 c5bb de1a f43d
000000e0: 516a ef3d 599f b13d 58f2 6abb 615a 73bd
000000f0: 226c 4f3d dcde a6bb 87a1 8f3d f173 7ebd
00000100: 75c1 383d 8a91 d13d 9516 7b3d e788 85bb
00000110: dcb8 e53d db5a 733d 875d a73c 5c6f 073d
00000120: 1585 0a3e eb6d bbbb 7022 0f3e fd1e a3bd
00000130: 618c 18bd 9f3e 063d 2f6a f43d d477 003c
00000140: f9ff a63d a2be f13d 7016 d63d fb33 37bd
00000150: 50cf b2bd 4d08 a2bd d287 bb3d 5d1f 0cbd
00000160: e15c 0abd e607 d9bd 1a82 f43d ddc1 75bd
00000170: acfa a03d e515 8ebd 9731 32bd 7327 c93d
00000180: ca3c e3bd 572e 9ebd 7dd0 e2bc 7e29 a13d
00000190: fa28 073d 5de4 39bc b91c 03be 2605 cfbd
000001a0: 3a91 693c 4bb3 b73d 1c0d 043e 26cf bb3d
000001b0: 1d9e ab3d 5105 663c 0ea6 a8bd 353e 933d
000001c0: 6639 4abd 7457 8dbd 920c 18bd 3cfb 563d
000001d0: 2eb3 f2bc 7ab2 fe3c ac71 1dbd 1cf6 453c
000001e0: 0649 e83d 978e 98bd a3a6 ed3d d583 7bbd
000001f0: 2133 b4bd e830 563d 1416 d03d 639e 8abd
00000200: 9293 1d3c 454d 393c 914f 063e a0f0 0cbe
00000210: f621 493d e9f6 fb3d a471 863d 65e0 8b3c
00000220: a01a f23d b185 3e3d a53e a03d e11f f93d
00000230: d592 df3c 284a 333d 2bd6 04bd 1d3e 03bd
00000240: 1a29 d53d 664e 7dbc 0946 603d 530f 813c
00000250: a9d3 d13d 7709 133e 8345 a23b a8fe 33bd
00000260: 2e1a 1f3e 49b7 9e3c cc46 e33d c04e 45bd
00000270: 71cb 123e 448f 393d a3ad 153e f0cb 0e3e
00000280: bdd4 adbd a726 f73d df46 053c 77ea 4ebc
00000290: 3331 bb3d 6efd 65bc 13f5 9abd 19ae b3bb
000002a0: a58d 73bd a606 a3bd 1ae7 923b 3e73 583d
000002b0: 0a7a 4fba 4da1 403d 555a d33d 3d5b 24bc
000002c0: b82c bfbd 1eb2 85bd 7696 f63d 1039 eb3d
000002d0: 34a7 a4bc 7fbb 283b 96b9 e13d d266 113d
000002e0: 46de 053e 0401 01bd fccc eeba 84d5 63bd
000002f0: ab7f 8c3d 82c0 cb3d 34de 68bd ec69 c93d
00000300: 9a88 d23d a330 f13d f2cd fcbd 6062 843d
00000310: 8e7f 6c3b aea0 5a3d 8560 67bd 483c 75bb
00000320: cdad c83d bc58 06bc 9c9d 06bd 7eb5 dcbc
00000330: 2e8f 65bd 97b6 4f3d fc3b d1bd 13c5 0fbd
00000340: da40 7a3d fc29 d53c a604 b4bd 4115 093e
00000350: e4b9 95bd 73a1 bdbd 5f0f 033e 91d0 ce3d
00000360: b190 053e ecd4 573d 8601 183d 66fb 6ebd
00000370: 0307 733d 6ac0 a9bc c223 88bd 36ae dd3d
00000380: eacd c13d 04dd a43d f869 69bd a8ba ce3b
00000390: c5bb 6a3d ba9f 903c 64b0 c3bd e681 843d
000003a0: 86a7 69bb 6e4a 783c ea9c 9f3d 725c abbd
000003b0: f05a d03d 91b6 8dbc 3854 e83d 1484 e83d
000003c0: 4d6e 093e cb3c fcbc 0236 52bd c3d2 f43d
000003d0: bf86 703d 77ee 863d f451 f63d a8e1 e83d
000003e0: 86d8 bf3d ec52 0e3d 5459 de3d 6f2d 25bb
000003f0: b89c b43c 0890 693d 4dd5 8cbd 5dcf b2bc
-0.04664645 0.0035029843 0.044980485 -0.041687664 0.12739153 0.04253442 0.15006036 0.0060064048
0.026913527 -0.014502644 0.06942298 -0.055512898 -0.08575367 -0.08987152 -0.0146326795 -0.0142948115
0.108498715 -0.081487134 0.05792786 -0.0066425432 0.015136878 0.0962189 0.02983651 0.111012615
-0.05605289 0.012815574 0.13156669 -0.04593624 -0.04852182 0.024912473 -0.016611116 0.075425014
-0.015315169 0.086996615 0.08218496 0.0015226208 0.07580296 -0.008679927 0.09131894 -0.06428299
0.12750301 -0.110746875 0.13757634 0.074645385 0.13451092 0.014658413 -0.012169099 0.03935369
0.10181227 0.044616714 -0.078461334 0.073088564 -0.026551759 0.0035892106 -0.0060371216 0.11919187
0.116902 0.08672971 -0.0035850015 -0.059412364 0.050640233 -0.005092485 0.07013231 -0.06212229
0.04510637 0.102328375 0.061300833 -0.004075158 0.112169 0.05941282 0.02043034 0.033065185
0.1352733 -0.0057198904 0.1397798 -0.07964895 -0.03724325 0.032774564 0.119343154 0.007841069
0.08154292 0.118039384 0.10453498 -0.044727307 -0.08730948 -0.079117395 0.09156765 -0.034209598
-0.033779982 -0.1059721 0.119388774 -0.059999336 0.07860312 -0.0693777 -0.043504324 0.098219775
-0.11095579 -0.077236824 -0.027687306 0.07869242 0.032998063 -0.01134595 -0.12803926 -0.10108404
0.014255816 0.08969744 0.12895626 0.0917037 0.08379767 0.0140393535 -0.082347974 0.071895994
-0.049371146 -0.06901446 -0.037121363 0.05248569 -0.029626455 0.031090964 -0.038438484 0.012082603
0.11342053 -0.07449072 0.11604049 -0.06140502 -0.087988146 0.052292734 0.10160461 -0.06768491
0.009617703 0.011309926 0.1311629 -0.13763666 0.049104653 0.12302954 0.06564644 0.017074773
0.118214846 0.046514217 0.078244485 0.121642835 0.027291695 0.043771893 -0.03243081 -0.032041658
0.1040823 -0.015460586 0.05475429 0.015754377 0.10245449 0.1435908 0.004952134 -0.04394403
0.1553733 0.019374507 0.11097488 -0.048170805 0.14335419 0.045302644 0.14617018 0.13944983
-0.08487842 0.12067919 0.008134573 -0.012629143 0.091402434 -0.014037473 -0.075662754 -0.0054834005
-0.059461255 -0.079602525 0.004483116 0.05284428 -0.00079146086 0.04702883 0.10319964 -0.0100315185
-0.09334701 -0.06528114 0.12040417 0.11485493 -0.02009926 0.0025746522 0.11021726 0.035498448
0.13073072 -0.03149511 -0.0018219049 -0.055623546 0.06860288 0.09948827 -0.056852534 0.09834656
0.10279961 0.11776855 -0.123439685 0.06464076 0.003608677 0.053375892 -0.056488533 -0.0037419964
0.09798775 -0.008199867 -0.03286515 -0.026942011 -0.05604475 0.05071124 -0.10216519 -0.035100054
0.061097004 0.026020996 -0.08789949 0.13387014 -0.073108464 -0.092593096 0.12798832 0.10098375
0.13043477 0.052693292 0.037110828 -0.05834522 0.05933286 -0.020721633 -0.06647445 0.10824244
0.09463103 0.08049968 -0.056985825 0.0063088723 0.057307977 0.017654289 -0.09555128 0.06470089
-0.003565283 0.015154464 0.07793601 -0.08367242 0.10173595 -0.017298969 0.113441885 0.11353317
0.13420983 -0.030790707 -0.051321037 0.11954262 0.058722254 0.06588452 0.1202735 0.113711655
0.093674704 0.03474705 0.10856882 -0.0025204082 0.022047386 0.057022125 -0.068766214 -0.021827394

lstm.weight_hh_l0 f4 [256, 64]
00000000: cdf2 48bd e95d 953d 9615 a4bc d4bd 8cbd
00000010: d32b ca3d 9656 9e3d 4311 fa3d 202a 2a3e
00000020: a5ee 363d 7336 96ba 13e8 32bd 0be5 8dbd
00000030: 2bdb 083d e709 17be 4100 a43d 0e23 513c
00000040: bb85 153e f889 a43c 893c 4bbd 4d11 953d
00000050: f282 643c d212 1b3c 3354 143e a9f5 08be
00000060: 64a0 fabd 6ec2 ddbd e85f cbbd 8b89 0f3b
00000070: 4f07 363e 5831 80bd f237 2abe f9cb febd
00000080: c4c4 96bc 425f 26bd 9ca7 003d 10ff 093d
00000090: ccbc e43d 898c 82bd 6262 27bd ebde 50bd
000000a0: 824f 76bc 0aa2 8c3d 7782 92bc 07e3 443d
000000b0: df75 1b3d 0d09 92bb c99b b4bd 35e2 bebd
000000c0: f91f 693d 0919 f83d f278 09be faa0 3f3d
000000d0: 9fd0 7ebd 2f4e d63c 8656 ec3d 227d 2abe
000000e0: 6ae0 053e ab0d f93c 0972 213d 9cb8 b63b
000000f0: f9c3 913d e4cb 67bd 80ec 01bd 406b 933c
00000100: 7b84 e53d 83fb 02bd d5d8 08be d11a 393d
00000110: fab0 7dbd cd9a bcbd 9759 823d 92e9 2d3d
00000120: 67e2 ed3d a63c cc3d 75db 83bd 2838 c7bb
00000130: 2472 5cbd 5731 853b 003e 3c3c 446b c5bc
00000140: d54e 9ebd de4e bb3d bdfc 003d 87ea 643d
00000150: 9ba0 77bd 35f4 e43d 08a6 023e a1d7 9a3b
00000160: 7a5a d83d 7c6f 203d 99ee 97bd 9ba9 2a3c
00000170: 0db0 c13d da30 673d 0c3e 2bbd 4f04 f0bd
00000180: 0270 853c 2d0e 1e3c 96ff f63b 8882 bd3c
00000190: 6748 083d 1330 1abc 8ace aabb 743e af3d
000001a0: 57fd 0b3d 71f2 1f3d d014 173d 25b5 a6bd
000001b0: ca81 5ebd 39cf ef3d a9c7 863d b021 95bc
000001c0: fc06 b43d 7d11 973d 09e6 a4bd 9460 a8bc
000001d0: be35 d23c 80c9 803d ec7a 0e3d 8e71 0dbc
000001e0: fcc7 a1bd 0f48 f0bc 4f5a 423c b2fa 00be
000001f0: 5a35 173d 2009 86bd f730 cc3d 4c9d 85bb
00000200: a810 1d3e 82ea 70bc efb0 d9bd d80f 093d
00000210: 7f91 003e af5a 263d 7006 9ebc 3548 de3d
00000220: 998e 3bbd a683 873d 84b5 c63d 32ef 8d3d
00000230: 0631 ce3c 7f6b 96bd d8ff 1f3d ce5a ddbc
00000240: 6823 3cbd 24b6 afbb 1422 513d 1af0 dd3d
00000250: 8d97 883d cafa 13bd 31c1 383d 7e84 803c
00000260: 24bb 903d fe95 f43c 6d26 96bd ae07 06bd
00000270: dea4 ad3d bc16 393d 6501 e3bd af1e fbbd
00000280: 4068 e5bb ce1d b43b 6100 153d f37f b0bc
00000290: d108 9a3d 2e82 aa3c 945b 99bd 5813 24be
000002a0: 956f 87bd 289d 8cbd e2d2 26bd 9715 cabd
000002b0: ce76 1a3d 198c e73d 8285 17be 32f4 cfbc
000002c0: dd11 1f3e 890a 193e 604c 7dbd 65d7 d2bd
000002d0: 9fba 0f3d 3e30 9bbc f171 aabd 66fb 0abe
000002e0: a8f3 9a3d 34d3 c9bc 399c fdbc ac18 85bd
000002f0: 3cee 1f3d 43ce 173e 0809 263d eacf 403d
00000300: 5fc4 353e 1e1f 21be 93e1 373d da07 b7bd
00000310: 4f80 94bc 0c5e 0cbd c554 de3d 5939 79bd
00000320: e22e 2b3d f346 28bd 4e2c abbc 71e8 f73d
00000330: dfa9 fc3d 5d3e c73c 897e a43d 8e8e 25be
00000340: 3e34 34bd 941e 1ebe 78ae b43c e849 333e
00000350: 6913 0dbe a523 c5bc 28dc 283d a3bc 36be
00000360: d70b e7bd 0918 a0bd 9b48 0ebe baa4 eb3c
00000370: 7217 0d3d 468c 4d3c 5873 29be 2517 c03c
00000380: 6ce0 dbbc b396 a8bd 2d32 283e cfed ef3d
00000390: 11f2 35bd 410f 9c3c 9c47 5a3c 1c06 39bd
000003a0: 9e14 fcbc 1eba 01bd dc03 013d 9ba2 8fbd
000003b0: d3c8 033e 99f8 253e be59 d83c 6791 14be
000003c0: 7ee4 6b3d 756c 183e 9a49 18be 92b4 edbd
000003d0: 429c e73d a55c 593a d9c7 f13d 1c9f 143c
000003e0: b800 433d ebdb 29bd 3775 47bd 4f3c 91bc
000003f0: d38e 703b 9028 363d bc9d d53c 32c2 393e
-0.049059678 0.072933026 -0.020029824 -0.06872144 0.0987164 0.07731359 0.12210324 0.16617632
0.044661183 -0.0011460319 -0.043678354 -0.06928452 0.03341214 -0.14749871 0.08007861 0.012764705
0.14601795 0.02008532 -0.049618278 0.072786905 0.013947235 0.009464936 0.14485244 -0.13374962
-0.12237623 -0.108281 -0.09930402 0.002190205 0.17776226 -0.062594116 -0.16622904 -0.124412484
-0.018404372 -0.04061819 0.031409845 0.033690512 0.11168823 -0.06374461 -0.04086531 -0.05099384
-0.015033605 0.06866844 -0.017884476 0.048068073 0.037954208 -0.0044566453 -0.08818776 -0.09320489
0.056915257 0.1211415 -0.13425043 0.04678438 -0.062210675 0.026160328 0.115399405 -0.16649297
0.13073888 0.030402025 0.039415393 0.0055762064 0.07117457 -0.05659093 -0.031719685 0.017995477
0.11206909 -0.03197814 -0.13363965 0.04519159 -0.061936356 -0.092092134 0.06364744 0.042459078
0.116154484 0.09972505 -0.064383425 -0.0060796924 -0.05381979 0.0040647197 0.011489391 -0.024099
-0.0772988 0.09145902 0.03149103 0.055887725 -0.0604559 0.11179391 0.12758648 0.004725412
0.10564132 0.03916882 -0.07418556 0.010416414 0.09457407 0.056443073 -0.04180722 -0.11719572
0.016288761 0.009646934 0.0075377924 0.023133531 0.033272173 -0.009410876 -0.0052126097 0.08556834
0.03417715 0.03904957 0.036885083 -0.08140019 -0.054322995 0.117094465 0.06581051 -0.01820454
0.08790395 0.073763825 -0.08051688 -0.020553865 0.025660392 0.06288433 0.034785196 -0.008633031
-0.07899472 -0.029331235 0.011862352 -0.12595633 0.036916114 -0.06544709 0.09970277 -0.004077589
0.15338385 -0.0147043485 -0.106294505 0.033462375 0.12555502 0.040613826 -0.019290179 0.10853616
-0.04579029 0.06616907 0.0970259 0.069303885 0.02516986 -0.07344722 0.03906235 -0.027020838
-0.045932204 -0.005362289 0.05105789 0.10836811 0.06669531 -0.036127843 0.045106117 0.015688177
0.07066944 0.029856678 -0.07331548 -0.032722168 0.084787115 0.045187697 -0.1108425 -0.12261712
-0.007000953 0.005496717 0.036377314 -0.021545386 0.07521213 0.020814028 -0.0748817 -0.16023004
-0.066130795 -0.06865913 -0.040728457 -0.09867399 0.037710957 0.113060184 -0.14797023 -0.025384996
0.15534158 0.14945425 -0.061840415 -0.102949895 0.035090085 -0.018943902 -0.08322514 -0.13572463
0.07566005 -0.024636842 -0.030958282 -0.064988464 0.039045557 0.14824776 0.040535957 0.047073282
0.17750691 -0.15734527 0.04489286 -0.089370444 -0.018127589 -0.034269378 0.10856012 -0.060845707
0.041792758 -0.041083287 -0.02089515 0.121048816 0.12337088 0.02432173 0.08031947 -0.16167662
-0.043995135 -0.15441352 0.02205585 0.17508662 -0.13776936 -0.024064848 0.041225582 -0.17845397
-0.11281555 -0.07817084 -0.13894884 0.028765071 0.034446187 0.012545651 -0.16547906 0.023448536
-0.026840411 -0.082318686 0.1642539 0.1171528 -0.044420306 0.019050242 0.013322737 -0.045171842
-0.03077155 -0.031671636 0.03149782 -0.070134364 0.12869577 0.16208114 0.02640998 -0.14508592
0.057590954 0.14885123 -0.14871827 -0.11606707 0.11309101 0.0008291698 0.11805696 0.009071138
0.047608107 -0.041469496 -0.04869577 -0.017728953 0.0036706224 0.044472277 0.02607619 0.18140486

lstm.bias_ih_l0 f4 [256]
00000000: 0669 b0bd 364c 69bd e066 a5bd 7c06 6bbd
00000010: 301e 023e 20bc 9e3c 9c84 10bd 948f 953d
00000020: 70fe 9d3d 1d24 8a3d bcc5 9b3c c52b e93d
00000030: f7eb e5bd 0168 3b3d dd0a 98bd 46c8 db3d
00000040: 4f49 8d3d 84b6 c53d ddcd 023d bb6d efbc
00000050: 9b49 bdbd 3e29 043e 3d2d a43d 0d55 dabc
00000060: 043d e4bd e7d0 793d 0531 dc3d 775e eabb
00000070: faac ef3d 8ceb 92bd a0e2 8ebd 1304 37bd
00000080: bec6 92bc 792e c43d 389b 1ebd 44ce b73d
00000090: 65e0 9c3d 180a 393d 924c 353d a73f 8ebd
000000a0: 1e44 d13d 8b18 183e df51 8a3d eb2d 8d3d
000000b0: cadc 503c c480 5cbd 981b 3f3d 151c 57bd
000000c0: 61b7 a83d 5ed7 0e3d a0f4 4d3d b573 abbd
000000d0: a44f e13d a294 1b3d feae edbd 6ba4 5fbd
000000e0: 4cd4 973d d218 ccbd 4e07 153e 3337 f33d
000000f0: 0948 983d d551 9e3d d4ef b6bb 7b85 3c3d
00000100: b2ab af3d dd28 03bc 49f8 8e3d f220 6f3c
00000110: 24ff 063d 1ff1 b03d fd65 b2bc 2bfa 06bd
00000120: d16f de3d 92c7 703d cb9a f43d 6e45 f43d
00000130: 9e33 843d 5dc4 ec3d efb9 133d 9562 f53d
00000140: 3638 2b3d c209 d5bd 6936 2dbd 602b 7fbd
00000150: 4475 a7bd 95c3 333d 078d e7ba c292 f23a
00000160: 68a7 c6bc 4153 1ebd f4d8 7ebd 4288 3a3d
00000170: 7bc3 6d3d 937a f83a 54cb 933c 8c48 803d
00000180: a5de 093d f77c 073e 4c2e cf3d ef1d 503d
00000190: 56fb f33d 3c28 64bd a700 14bd 9230 b4bc
000001a0: 8001 f53d 1712 643c b3a4 f03d 6d7f 27bd
000001b0: ce8d e5bd 5c67 35bd 2165 f33c c375 cd3d
000001c0: aac5 983d 9491 523d 6a1b d8bc 71dd 56bd
000001d0: 94c6 673d 48f7 143d 58b1 95bd 3653 9ebd
000001e0: 5557 c6bd a331 b43d 8472 9b3d 7552 713d
000001f0: afc9 b03d a7a6 d03b 218f 0b3e 2895 2b3c
00000200: a3d9 fd3d 82a3 aebd 0678 563d 2da7 ae3d
00000210: eb70 43bd 6363 273d 9c66 0a3e 2930 f73c
00000220: 1ce3 b2bd 5b88 1d3d 1044 703d 5786 47bd
00000230: bc18 88bd 65c8 c93d 7a7b 7f3b 21a8 813d
00000240: e79b 82bd 2392 59bd 38da 5dbd f21a 6cbd
00000250: a685 ac3d 6f00 9e3b 1ba5 dd3d 1bd3 703d
00000260: 9854 bf3d 4ac7 f4bc 022c b43a 89ca d53d
00000270: 9141 403c 2179 173d 9fe7 14bd bb2e 593d
00000280: 740d ff3d 0be2 ac3c 0d64 003e 267e 5abc
00000290: 6ce5 b13d 8935 44bd 03a9 9dbd 5a5d bbbd
000002a0: efb8 d23d ec25 c73c 191c 04be c09c 2c3d
000002b0: 6e2e 34bd de98 4ebd 281e be3d 960c d13c
000002c0: 98f5 403d dfa9 053d 443d c3bc 0887 833d
000002d0: 5f84 9fbd 43d0 793d 3071 d4bd 0e21 283d
000002e0: 3ce0 3ebd 9bbf 9cbd c5ba cebc f32b 013d
000002f0: 943d 64bd 769a 003e f625 c5bd 6ed8 07bd
00000300: 624e 57bd 7ba2 123e e41f 4f3d a7b4 a0bd
00000310: dc1f 183c bac6 ea3d 8d0a 543d d79b 71bd
00000320: e248 9bbd f137 70bb b2ec 1abd 9916 ca3d
00000330: cbd9 2abd b078 013d 7809 ffbc 3400 7e3c
00000340: ec9d 5b3e 23b5 ccbc 42df a43d 98e1 0ebd
00000350: c78e 10bd 447d 243d 93cb 163e a712 c7bd
00000360: 8331 12bd cb7c a3bd 9d86 a03d b804 68bc
00000370: a7a8 5ebc 11a6 1c3e 13cc 183d beec 823d
00000380: 56c6 803d 5085 c23d 97ce 1e3e 658f b33c
00000390: 9b72 bb3d 7dd5 0ebd d3fd cf3c 7423 b33d
000003a0: 27d5 823d 59dc f03d fbec b8bd 457b fb3d
000003b0: d0a4 f53d 39c9 f73d 1e8f bbbd 5133 dc3d
000003c0: f0cd 42bd 0291 c23d dd2e 9fbd 94de dc3d
000003d0: 914a fa3d cf96 8dbd 1066 c63c e8c0 d93d
000003e0: 9f62 7abd bc11 533c 66aa ad3d e8ea 88bd
000003f0: d406 36bd c7b1 7bbd bb94 853d 2baa cc3c
-0.08613782 -0.056957446 -0.080762625 -0.05737923 0.12706828 0.019376814 -0.035282716 0.07302776
0.07714546 0.06745169 0.019015186 0.113853015 -0.11226647 0.045753483 -0.07423947 0.107315585
0.06898748 0.09653953 0.031934608 -0.029227128 -0.09242555 0.12906358 0.08016441 -0.026651883
-0.1114445 0.06099024 0.10751537 -0.0071523744 0.117029145 -0.07173833 -0.06976819 -0.04468162
-0.017917033 0.095791765 -0.038722247 0.08974889 0.07659987 0.04517564 0.044262476 -0.069457345
0.102180704 0.14853112 0.06753897 0.06893524 0.012747953 -0.053833738 0.046657175 -0.052517015
0.08238102 0.03487336 0.05028212 -0.08371679 0.11001518 0.037983544 -0.11605643 -0.05460016
0.07413539 -0.099656716 0.14553568 0.11875763 0.074356146 0.07730452 -0.005582789 0.046025734
0.0857767 -0.008005348 0.069809504 0.014595257 0.032958165 0.0863974 -0.021777147 -0.032953423
0.10861171 0.058784075 0.11943587 0.11927305 0.06455158 0.11560891 0.036065992 0.11981694
0.041801654 -0.10402252 -0.042288218 -0.062297225 -0.081766635 0.043887693 -0.0017665931 0.0018506872
-0.024249747 -0.038653616 -0.06221862 0.0455401 0.058047753 0.0018957428 0.01804129 0.06263837
0.033659596 0.13231264 0.10116252 0.050809797 0.11913173 -0.055702433 -0.036133435 -0.021995816
0.11963177 0.013920329 0.11750164 -0.040893007 -0.11208688 -0.044288024 0.029711308 0.10032227
0.074595764 0.051408365 -0.02638026 -0.052457277 0.056585863 0.03636864 -0.07309216 -0.07730715
-0.09684626 0.0879853 0.075902015 0.058916528 0.08632218 0.0063675228 0.13628818 0.010472573
0.123950265 -0.085272804 0.052360557 0.0852798 -0.04771511 0.040866267 0.13515705 0.030174332
-0.08734724 0.038460117 0.05865866 -0.0487121 -0.06645343 0.09852675 0.003898351 0.06330896
-0.06377392 -0.053117882 -0.054163188 -0.057642885 0.08423929 0.004821829 0.10822507 0.058795076
0.09342307 -0.029880185 0.0013746026 0.10439021 0.011734382 0.036980752 -0.036353704 0.05302308
0.12453738 0.02110388 0.12538166 -0.01333574 0.08686337 -0.047902618 -0.07698252 -0.09148665
0.102891795 0.024310075 -0.12901343 0.042141676 -0.04398959 -0.050438754 0.092830956 0.025518697
0.047109216 0.032632705 -0.023832925 0.064222395 -0.0778892 0.06098963 -0.10373151 0.04104715
-0.046600565 -0.07653733 -0.025235543 0.031536054 -0.055722788 0.12558922 -0.09626381 -0.033165388
-0.052564986 0.14319794 0.050567523 -0.07846957 0.00928494 0.11463685 0.051767875 -0.05898651
-0.07582261 -0.0036654437 -0.037823386 0.098675914 -0.04171161 0.031609237 -0.031132445 0.015502978
0.21446961 -0.024988716 0.080503955 -0.03488311 -0.035292413 0.040158525 0.14726095 -0.097203545
-0.03569175 -0.07982787 0.078381754 -0.014161281 -0.013590015 0.15297724 0.037303995 0.06392811
0.062878296 0.094980836 0.15508495 0.021918962 0.09152719 -0.034871567 0.025389588 0.087469965
0.06388312 0.11760778 -0.090295754 0.12279371 0.11994326 0.12098927 -0.09158157 0.10751975
-0.04755968 0.09500314 -0.0777261 0.10784641 0.12221254 -0.0691353 0.024218589 0.10632497
-0.06112921 0.012882646 0.084797665 -0.0668543 -0.044440106 -0.06144884 0.06522509 0.024983486

lstm.bias_hh_l0 f4 [256]
00000000: 4780 1bbd f5ca ff3d 9a32 91bd 3685 b73d
00000010: 7153 ed3d 6346 b03d 2ee0 053e 236a 7abd
00000020: 824c f43d 70d1 81bd a823 923d 4113 babd
00000030: 8ec0 fc3c d1bc b1bc b3fe 19bd a9f9 9dbc
00000040: ea18 b23d 689e cbbd 61cc 9bbd f723 da3d
00000050: 066d fcbc d46e 1b3e 9721 bd3d 91fe bebc
00000060: 795a 3bbc 5fc1 bdbc 01da a9bc 833e 64bc
00000070: bc65 ba3d 3c62 2dbd 5640 bc3d 02ed b03d
00000080: f55e c73d 7b0a f63c 504e eebc 59e9 57bd
00000090: f70c d23d b58e 833d 0af1 a53d c9a4 1f3c
000000a0: 919c f6bc d244 7a3d 12ce e2ba 5e3a aebd
000000b0: d597 17bc 3d0e 33bc 3df2 c63d fabb 2fbd
000000c0: 8b58 c1bd 30da e23d 5828 3fbd c533 ec3d
000000d0: b652 e93d ad9d a9bc 6d92 edbc e2ad 043e
000000e0: c87f bcbd 1727 a2ba 4a59 673d c61c 663d
000000f0: e776 a5bd 05bd abbc b5d9 e2bb abd4 273d
00000100: b830 df3c bbaa 843d a3e6 9a3d c0f9 d33d
00000110: 9590 ab3d 3595 443d b23f 7fbd 4f65 183e
00000120: 4db1 80bd 3f49 913c 36b1 013e 9a10 b63d
00000130: 08d5 fbbd 3693 6e39 89b8 203e a7ac 053d
00000140: 42e5 b63d 40d6 58bd 8b54 f93d 759e b53b
00000150: 0002 003e 8ba9 38bd 5d4e 103e dc18 b23d
00000160: 694f af3d bb25 503d ac17 0d3e 7405 a5bd
00000170: 2381 6e3d 835c 903d 1401 a3bc 0a51 823d
00000180: 06fa cd3c 0a05 ce3c 285b 843c ec8a 89bc
00000190: bef2 083e 2e1f 9d3d d769 2ebd 1a9b f6bd
000001a0: 9d66 58bd 2505 b2bd a9ff 0abd 890b b3bc
000001b0: 12d9 de3d 8c12 5c3d abdc b93d d292 2e3d
000001c0: 0a6e 8e3c ca4e 173e 4bf8 33bd 33f1 80bd
000001d0: 962a a23d 7f3a f53b c089 c1bd e21f c33d
000001e0: a7b5 823d c3ee cf3d 85fc c53d 7df8 113e
000001f0: c1d7 a43d 374c 90bd bd12 f53d f172 1cbb
00000200: 5c0b b63c e97e 2dbd abdd 593d 35be 8cbd
00000210: 6baa e1bc f945 1abd ac89 c73c 081d c93d
00000220: a535 083d 5da0 01be e7fa b1bd 4d58 f93b
00000230: e6f1 0fbd 7b0f c9bd ed9d b43c 5e65 5c3c
00000240: 0827 b4bd f603 8f3d c151 d23d 7593 88bd
00000250: 2528 2bbb 5c7b a43d 6e59 24bd ba90 14be
00000260: 5dc1 b5bc c99c b4bd a21f 0abd c1c4 b53d
00000270: a61b d63d 4372 5e3d 0d3f d0bc e026 19bd
00000280: 5e84 dd3d b6d9 a4bd bc60 1d3d 3adf ff3c
00000290: 1255 c5bd dcf0 20bd af79 a4bd 2e87 f33c
000002a0: 9ae0 91bd b5b0 01be 1529 823d ae68 dd3c
000002b0: 0d09 8c3c be06 1abd 8a34 80bd fe70 ebba
000002c0: e10f 50bd 8284 4fbd f001 873d 2180 82bd
000002d0: a011 c53c b3c3 92bd ee2d f83d b811 03be
000002e0: 7bd4 a8bd 148e b6bb b757 773d 0fc6 b1bd
000002f0: b838 7e3d 9af9 1d3d 73f8 12be eba6 d03d
00000300: be09 b1bd 2e1d eb3d 7383 c6bc 15ea e33d
00000310: 2a1c bd3d 1b66 b73d ebd9 213e 6d51 a0bd
00000320: 0979 0b3c faf4 0c3e f530 fd3d b5bc 9cbd
00000330: bed2 323d 8563 aa3d 4f78 9a3d e5a1 933d
00000340: fe48 e83c 2de5 bdbd 47a2 803b ffd0 923d
00000350: 9f49 43bb 6469 c3bc cdea b4bd 61b3 9d3d
00000360: 7468 723c db48 893c 3265 86ba da03 c03d
00000370: 5c51 4e3d 6d3f 293d f188 e93d 6e79 a5bd
00000380: 3bb6 c03d 2ea8 8b3b 8c42 fabb 4ea4 cb3d
00000390: 886f 2dbd a54e 0a3e 8dba 97bd a14e 293e
000003a0: 3c66 ddbc d48e 2ebc ebb1 5b3d e7e4 0c3d
000003b0: d614 7dbc 269e 2b3d 350b 2cbd 414a b7bd
000003c0: 397e 293e d67a 253e 12c2 cbbc 29a0 843c
000003d0: 0798 f13d c510 3a3d d00f 99bc a175 06bc
000003e0: d467 1c3b 31ff 7b3d db99 513d f421 55bc
000003f0: 9a8f 9c3d 2403 5bbd 6495 d73b 60f1 083e
-0.03796413 0.12489883 -0.070897296 0.08960955 0.11588181 0.08607175 0.13073799 -0.061136376
0.11928655 -0.06338775 0.07135707 -0.09085704 0.030853536 -0.02169648 -0.037596416 -0.019284086
0.08696158 -0.09942323 -0.076073416 0.10651391 -0.030813705 0.15178996 0.092349224 -0.023314746
-0.011435145 -0.023163496 -0.020733835 -0.01393092 0.091014355 -0.04233001 0.091919586 0.08638956
0.097349085 0.030034294 -0.029090077 -0.052712772 0.10256379 0.064237036 0.08102615 0.009743878
-0.030103954 0.06110079 -0.0017303845 -0.085072264 -0.009252508 -0.010928688 0.09714172 -0.042903878
-0.09440716 0.11076772 -0.046669334 0.11533312 0.11392729 -0.020705068 -0.029000485 0.12956956
-0.0920406 -0.0012371269 0.056481637 0.056179784 -0.080793194 -0.020964155 -0.0069229254 0.0409743
0.02724491 0.06477877 0.07563522 0.103503704 0.08377186 0.047993857 -0.062316604 0.14882396
-0.062838174 0.017735122 0.12665257 0.08889885 -0.12296492 0.00022752289 0.15695395 0.032635357
0.08930446 -0.0529387 0.121743284 0.005542571 0.12500763 -0.045083564 0.14092393 0.08696148
0.08560068 0.050817233 0.13778561 -0.08057681 0.058228623 0.07048895 -0.019897975 0.06363113
0.025143635 0.025148887 0.016156748 -0.016789876 0.13373849 0.07671963 -0.042581405 -0.12041302
-0.052832235 -0.086923875 -0.033935223 -0.021856086 0.108812466 0.053728625 0.09075292 0.042620488
0.017386455 0.1477615 -0.043937963 -0.06296005 0.07918279 0.00748378 -0.09450102 0.095275655
0.06382304 0.10152962 0.09667305 0.14254947 0.08048964 -0.07045787 0.11966465 -0.0023872221
0.022222213 -0.04235736 0.053189915 -0.068722166 -0.027547082 -0.037664387 0.02435764 0.098199904
0.033254284 -0.1265883 -0.08690434 0.007609403 -0.0351428 -0.09817406 0.022047961 0.013451902
-0.08796507 0.06983177 0.102694996 -0.0666875 -0.0026116457 0.080313414 -0.04012435 -0.14508334
-0.02218693 -0.08818967 -0.033721574 0.088754185 0.10454492 0.054308187 -0.02542069 -0.03739059
0.10816263 -0.080493376 0.03842233 0.031234372 -0.096353665 -0.0392922 -0.08031022 0.029727545
-0.071229175 -0.12665065 0.06355492 0.027027454 0.01709416 -0.037604086 -0.06260021 -0.0017962751
-0.050796393 -0.05066348 0.065921664 -0.06372095 0.024056256 -0.07166233 0.121181354 -0.12799728
-0.082436524 -0.0055711363 0.060386386 -0.08680355 0.06206581 0.038568117 -0.14352588 0.10188087
-0.08644436 0.11480175 -0.024232602 0.11128632 0.092338875 0.08955022 0.15805785 -0.07828031
0.008512744 0.13765326 0.123628534 -0.076531805 0.04365801 0.08319763 0.07542478 0.07208613
0.028355118 -0.092722274 0.003925595 0.07168769 -0.002979852 -0.023853965 -0.08833847 0.077002294
0.014795411 0.016758373 -0.0010253547 0.093757346 0.05037056 0.041320253 0.114030726 -0.080798015
0.09409758 0.004261992 -0.0076373275 0.09943448 -0.042342693 0.13506563 -0.074086286 0.16533901
-0.027026288 -0.01065417 0.053636473 0.034397986 -0.015446862 0.04189887 -0.042002875 -0.0894971
0.16552056 0.1616014 -0.024872813 0.016189652 0.11796575 0.04542615 -0.018684298 -0.008206756
0.0023865597 0.061522666 0.05117212 -0.013008583 0.07644577 -0.053469792 0.006579088 0.13373327

lstm.weight_ih_l1 f4 [256, 64]
00000000: d7cb 05bd cd05 2bbd 544e d93c f3df f8bd
00000010: c7ed 763d 2847 f63c 17ac b63d 4f15 d6bc
00000020: d8aa 80bb d458 68bd 05a6 003e 7348 e03d
00000030: 95fb 8dbd 711d bfbd 9f7d c23d 180e 03be
00000040: d5b2 183e e970 183d 361f 94bd 1230 59bd
00000050: 43de 29bd 4e37 673c 906f b03d d41f bfbd
00000060: 3e2b db3d ecb2 28bc 4849 04be 45ca 193a
00000070: 8e5b 063c 5307 95bd 7f89 9abd 7ced 08be
00000080: 0a03 fd3d 1074 b236 ecc2 e33c a806 833b
00000090: def3 063d 76a3 c23c a714 9ebd 165e 843d
000000a0: 5e07 ab3d 4f2f e4bd 2b18 64bd 307b 8cbc
000000b0: 1c16 503d 5fd8 b8bd 858c 9abb 6bd1 c33c
000000c0: a521 0c3e 27b1 c83c 6723 73bb 3c24 763d
000000d0: ad85 1dbc 2008 de3c 55dc 4637 d477 213d
000000e0: 581e 053e 5388 c63d 9bd1 8d3c 20d9 40bd
000000f0: 7577 c13d 4a53 f53c 645a 193d bd06 83bd
00000100: 00e2 0f3e a86c e7bd 2d5c b13d 7a1b 18be
00000110: b392 943d 31b3 213d 2b8a 73bd ef0d 1fbb
00000120: e76f 063e abc5 62bd 797c e93c e790 043d
00000130: 10f0 933d 75ac 953d eed4 8d3d 19c4 ac3d
00000140: c670 d63d 4d4e 8ebc 8e62 1c3e 417d 543d
00000150: 5b43 bebc 9f53 8c3d e026 d53c b151 20be
00000160: 3477 02be 1d98 c9bc f3ad 783d 8c6e d4bc
00000170: b881 263d 1fc1 8e3d 865b 633b 3e72 e7bb
00000180: 6d6c 033c 237e c6bd ae7d c93c 50c1 a33d
00000190: 8e2d 60bd 9c2c fcbb 2f1e 02bd 2fca 1dbe
000001a0: 704c d1bc b0d8 1ebe 55db 01be 0c1b ce3c
000001b0: 45ca 173e b978 403d 6af0 11be a58d 03be
000001c0: e0bc 06bd 800b 0e3e 8efb 31bd 74e2 4fbc
000001d0: 8a3b 6f3d 0dd2 403d b299 f83d fb0c c0bd
000001e0: 3d60 30bd 3f87 d33d 116d a93d 9960 8a3d
000001f0: 72b2 4c3d 77e2 a93c 1b37 a03d 516d 133e
00000200: 46b1 903d caf1 f9bd 71e6 aabd f263 5f3d
00000210: 3016 0c3e 3ce6 b53d 3330 84bd 15da 0cbd
00000220: 2d80 d83d 28b3 1bbd b102 12bb 5ba6 cd3c
00000230: 33aa 68bd 259a 02bd d285 343d 586b c7bc
00000240: 41ed 103e ecbf 09be c93d 6a3d 43f9 f0bc
00000250: 577f fbbd 22cb afba 7340 f6bc 1603 b9bd
00000260: 86ed e5bd 1430 393d 05dc 14bd 2546 00bd
00000270: 3e98 d3bc bd44 97bc 6576 a9bd 0810 14be
00000280: 89de a1bd 28bf b13d f22e 813d da16 403d
00000290: f61c 0dbd 9eed 393c 6a6c 153d e778 103d
000002a0: cc56 12bd c4f0 333d f376 863d a769 f23b
000002b0: 1ff6 d03d 2ca9 fe3d f1e4 233c bb6b 583d
000002c0: a2b4 8d3d 28ee 94bd c5be d8bc 2686 22bd
000002d0: 1a77 163e 4405 9a3a 2cac 8a3d 8649 fcbd
000002e0: f0b0 0d3e e2a7 a2bd b2cf cbba 1e30 283d
000002f0: 7df6 da3c e72b e73d fd6f bc3d b832 723d
00000300: 5a60 f33d 1d89 e93c b1be 6dbd f838 edbc
00000310: 726e afbc 4504 093d ec61 35bd 9819 d03d
00000320: f21c ddbb af70 b33d 8117 af3c 7665 043e
00000330: 8b1a 8b3d 6f57 b83d bdf3 2ebc ae51 3dbd
00000340: 8ae5 8b3d f5b3 1fbd c7a6 6cbd 854d c63d
00000350: bb63 dfbc 0f54 a53d b4d2 f33d 4325 9dbd
00000360: a021 9f3d a4f6 b83d 542c 55bd 7447 c9bd
00000370: a9fe a03d db53 59bd 3681 41bd 14a9 bcbd
00000380: 8ea9 abbd 641f a03d fc4c 58bd 2f5b 22bd
00000390: fd67 453c 0ab0 2bbd 5783 e1bd c664 8ebd
000003a0: 2898 81bd f5fc 01bd 54a9 02bb 08cc aa3d
000003b0: b1f0 0a3d 26b6 dd3d 84c8 dbbd 6e32 cd3c
000003c0: 78d2 413c 0355 093c 07da 4cbd 51ff 843d
000003d0: 3028 a7bd e03e a43d 5141 adbb 6aac da3b
000003e0: 5712 3ebd e2cb d7bc f058 033c a7c7 b33d
000003f0: 9104 d8bd 7465 64bd 5f07 b9bc 2ed1 31bb
-0.0326651 -0.04175358 0.026526608 -0.1215209 0.060285356 0.030063227 0.08919542 -0.026133208
-0.003926616 -0.056725338 0.12563331 0.109513186 -0.06932751 -0.093317874 0.094966166 -0.12798345
0.14911969 0.037217055 -0.072325155 -0.05302436 -0.04147173 0.014112307 0.08615029 -0.093322426
0.10701607 -0.010296565 -0.1291858 0.00058666273 0.008200539 -0.072767876 -0.075457565 -0.13371843
0.12354095 5.318325e-06 0.027802907 0.003998596 0.032947414 0.023759585 -0.07718783 0.06463258
0.083510146 -0.11141836 -0.05568711 -0.017148584 0.050802335 -0.090256445 -0.0047164583 0.02390357
0.1368471 0.024498535 -0.003709996 0.06009315 -0.00961439 0.027103484 1.185302e-05 0.039420918
0.12999856 0.096939705 0.017311862 -0.047082067 0.09446613 0.029946942 0.03743972 -0.063977696
0.14051056 -0.113000214 0.08660159 -0.14854231 0.07254543 0.03947753 -0.05945794 -0.002426978
0.13128625 -0.055364292 0.028501736 0.032364752 0.07223523 0.07308284 0.06925379 0.0843584
0.104707286 -0.017371321 0.1527197 0.051877264 -0.023225477 0.06851887 0.026019514 -0.15656163
-0.12740785 -0.024608666 0.060712766 -0.02593162 0.040651053 0.06970429 0.0034692003 -0.0070631793
0.008021456 -0.096920274 0.024596062 0.07995856 -0.054730944 -0.0076957475 -0.031767067 -0.15409158
-0.025549144 -0.15512347 -0.12681325 0.025159381 0.14823253 0.04699013 -0.14251867 -0.12847002
-0.03289497 0.13871574 -0.043452792 -0.012688268 0.05840639 0.04707532 0.1213869 -0.09377476
-0.04306053 0.103285305 0.08272756 0.06756706 0.049974866 0.02073787 0.078230105 0.1439717
0.07065062 -0.12204321 -0.083447345 0.054538675 0.13680339 0.08881804 -0.06454506 -0.034387667
0.105713226 -0.038012654 -0.0022279436 0.025103739 -0.05680294 -0.031885285 0.044072933 -0.024343178
0.14153005 -0.13452119 0.05718783 -0.029415732 -0.122801475 -0.0013411979 -0.030060029 -0.09033792
-0.112269446 0.045211866 -0.03634264 -0.031316895 -0.02582943 -0.018465394 -0.08274535 -0.1445924
-0.07903773 0.08679038 0.06307782 0.046896793 -0.034451447 0.011348156 0.036480345 0.03527155
-0.035727307 0.043930784 0.065656565 0.0073978486 0.10203194 0.12434611 0.010003314 0.052837115
0.069192186 -0.07271987 -0.026458154 -0.039678715 0.14693871 0.0011750837 0.067711204 -0.12318711
0.13837028 -0.07942177 -0.0015549569 0.041061513 0.026728863 0.112876706 0.092010476 0.0591304
0.11883612 0.028507764 -0.058043186 -0.028957829 -0.02141497 0.033451337 -0.04428284 0.101611316
-0.0067478353 0.08761727 0.021373512 0.1292933 0.06792172 0.09001052 -0.010678229 -0.046220474
0.068308905 -0.03898998 -0.05777624 0.096827544 -0.027269235 0.080726735 0.11905423 -0.07673123
0.07770085 0.09031418 -0.052044228 -0.09828082 0.078610726 -0.053058486 -0.047242366 -0.092119366
-0.08381949 0.07818487 -0.052807793 -0.03963774 0.0120487185 -0.04191593 -0.11011379 -0.06952815
-0.063278496 -0.03173538 -0.0019937353 0.08339697 0.033920947 0.10825758 -0.10731605 0.02504846
0.011829965 0.008382085 -0.050012615 0.0649401 -0.08161962 0.08019805 -0.0052873273 0.0066733854
-0.04640421 -0.026342336 0.00801681 0.08778315 -0.10547746 -0.055760816 -0.022586523 -0.0027132737

lstm.weight_hh_l1 f4 [256, 64]
00000000: 74b3 653d 3a69 30bd dc9d 02bd 4094 babd
00000010: e5d6 5ebd 3cdb 8fbc 13e0 d43d 8847 ff3d
00000020: 1f7a 5a3b 54fe 8ebd 53f9 533d 666a 9c3c
00000030: 0203 74bd 590f 98bd 4995 06be 3ee3 613d
00000040: c33b 5c3b 2dca e9bd 7578 b8bd 6533 a8bd
00000050: 431a e83d 5735 c23d 60ee 853b 1e93 913b
00000060: 254e 9fbc b26c 8a3d f1b3 a63d 717a 1cbe
00000070: 2354 8f3c 6cf2 54bd e746 5f3d 6fc1 e13d
00000080: f6d0 e0bd b808 25bd cd78 52bd ce94 193d
00000090: 911e aa3d 0a78 7abd 6f21 fbbd 56ec df3d
000000a0: db23 b1bc 7f24 00be 1b09 123d 4212 a03c
000000b0: 91ff fc3d 24ff 4cbd f1b0 273d cc1a 32bd
000000c0: fdeb 6dbb 9f34 39bd 2557 7dbc adeb da3d
000000d0: b52c 1abc 5416 333d 325c c1bd 41fd d53c
000000e0: 76d5 b83d af83 063d fecd afbd 4b3f 92bd
000000f0: 3b3f 83bd 233a ddbd 5999 633d 7862 d6bc
00000100: 1e5d 8fbb 156c 8c3d 2256 9cbd 98eb 91bc
00000110: c314 b2bd 3399 bcbc 3574 c1bc 75c6 43bc
00000120: dac1 823c ebb7 c1bd c85e 30bb 6ed5 5c3c
00000130: 8f38 3fbd 2354 373d a539 05bd 953a e13d
00000140: 2f97 003e 01a2 803d 44d1 d1bd c8b1 633d
00000150: b8f7 a4bd f946 babd b97b 123e 4e10 403d
00000160: 20cc dfbd 07ea 06be b201 aabd 6b73 19bd
00000170: 20f8 0fbb 07fb f8bd d6cb adbd 339c 703d
00000180: 5750 0b3d b057 273d d779 b83a e1a7 31bd
00000190: 77d8 893d 95c4 eebc 2c42 81bd 6ee9 b43d
000001a0: 9137 13bd 091c 13bd 5e4f 0fba cbbc d63c
000001b0: fd63 a63d 9fc0 4dbd 27da b2bd b3cd 903d
000001c0: 2688 603d 534d 0b3e 4b72 03be 0860 05bd
000001d0: 55cf 843d 2265 89bd 7cc7 86bd 6009 8ebd
000001e0: 3073 053e ae42 df3d 2542 87bd 01c3 c8bd
000001f0: 5bf7 253e 050d f3bd 49b6 33bd b3b8 923d
00000200: a23b 66bc 32ef e23d 6663 81bd 5730 3cbd
00000210: c638 85bd e566 04bc 3c90 80bd 7636 11bd
00000220: 6c13 74bd 91a5 453d f0f2 703d 0577 5dbd
00000230: a6b9 ef3c 50d2 9fbd 169d b9bc 4869 80bd
00000240: 8bd7 16bd aedc 4fbd c07e 523c f0f4 ed3d
00000250: 45f5 3f3d 868c 86bd a04a 403d d2ad 593d
00000260: f338 043d be0b a33d 1a02 bd3c 9083 ddbd
00000270: 6a06 babb af18 e53c ca9c 23be 6e9a 76bd
00000280: e04d a03d 915d 773d 799e 4a3d 1f8c 73b9
00000290: b836 553d c69d 9f3d 9013 ccbd d0d7 d73d
000002a0: ab61 62bd 6a6a 92bc 99ec 773d 9d74 67bc
000002b0: c79f d23d 453e 443d 1a78 00be b0ef 2bbd
000002c0: fe0f 4a3d 063e 69bc 01c5 21be 0ad6 71bd
000002d0: 4de8 343d ed98 7a3d 84dc 593d 6849 33bd
000002e0: 17c9 3d3d 2ce5 ee3d 15a4 94bc 4d71 a3bd
000002f0: eeae 7abd 1eb9 ba3d 85cc 8b3d c9aa adbb
00000300: b5b8 16bc a368 243d 74c8 21bd 407b dcbd
00000310: 0386 093b 1e4a a93d e12f 863d 0c49 853d
00000320: d0d2 5ebd 4179 58bd d9f4 39bd eaff 8cb9
00000330: 83ff c5bc 61cc 003c acb9 f9bd d92a 4fbb
00000340: 885c ec3c 766d 123b 0eb3 a4bd 9084 32bc
00000350: 4f8b 373d 1ddb 103e a741 95bd 0399 a3bd
00000360: 55c7 c63c 71b5 833d 3931 afbc d85f c23b
00000370: 22e0 9cbd 9044 db3d 75c9 acbd c98f ffbd
00000380: 341a e93b 345c 7bbd 59c6 e1bc 6157 96bd
00000390: 0291 053d 6a0c 8fbd 226f a93d a2dd c33d
000003a0: 8154 60bd b0c3 6e3c b883 673d a009 b7bd
000003b0: 2b14 65bd d92f e63d e7f9 fabd 4d28 1ebe
000003c0: 5633 1ebd 75ec a33c 2753 d1bd d638 95bd
000003d0: 2f2c 8cbd 8a25 f3bc bf2e ccbd ec88 b8bc
000003e0: fade 053e 5a8c 0c3e 6a10 a73d f895 c6bd
000003f0: d60e ae3d 53fe 9cbc f036 83bd 7910 2dbd
0.056079343 -0.043069102 -0.031888828 -0.09110308 -0.05440416 -0.017560594 0.10394301 0.124648154
0.003333695 -0.06982103 0.051751446 0.019093703 -0.05957318 -0.07424802 -0.13142885 0.055148356
0.0033604957 -0.11415515 -0.0900735 -0.08212928 0.11333134 0.0948283 0.0040872544 0.0044425866
-0.019446442 0.06759013 0.0813979 -0.15281083 0.017496174 -0.051989004 0.054510977 0.11023223
-0.10977356 -0.040291518 -0.051384736 0.037495427 0.08306611 -0.061149634 -0.12262236 0.109337494
-0.021623543 -0.12513922 0.035653215 0.019539956 0.12353433 -0.05004801 0.04094023 -0.043482587
-0.003630399 -0.0452162 -0.015462671 0.10689483 -0.009410073 0.043722466 -0.09441413 0.026121737
0.090250894 0.032840427 -0.08584212 -0.071409784 -0.06408545 -0.10802104 0.055566166 -0.02617
-0.004375114 0.068565525 -0.07633616 -0.017812535 -0.08695366 -0.02302227 -0.023614982 -0.011949171
0.015961576 -0.09458908 -0.0026911963 0.01347862 -0.046684798 0.044757973 -0.032525677 0.10997502
0.12557672 0.062809 -0.102449924 0.055589467 -0.08055061 -0.09095568 0.14305009 0.04689055
-0.10927606 -0.13175212 -0.083011046 -0.037463587 -0.0021967962 -0.12157255 -0.08486144 0.058742713
0.034012165 0.04085511 0.0014074397 -0.043372992 0.067307405 -0.029146472 -0.063114494 0.08833586
-0.035941664 -0.03591541 -0.0005466844 0.02621307 0.0812454 -0.050232526 -0.087330155 0.07070484
0.05481734 0.13603716 -0.12836568 -0.032562286 0.06484858 -0.06708743 -0.065810174 -0.06935382
0.13032222 0.1090139 -0.06604413 -0.09802819 0.1620764 -0.11867718 -0.043875013 0.07164135
-0.0140523035 0.11080779 -0.06317787 -0.045944538 -0.06504969 -0.008081173 -0.062775105 -0.03545233
-0.059588835 0.0482536 0.058825433 -0.054068584 0.029263329 -0.07803786 -0.022657912 -0.06270081
-0.03682665 -0.050747566 0.012847602 0.11618984 0.046864767 -0.065697715 0.046946168 0.053144284
0.032280874 0.07961224 0.023072291 -0.10816109 -0.005677034 0.027965872 -0.15977779 -0.06020587
0.078273535 0.060391966 0.049467538 -0.00023226485 0.052054137 0.07793765 -0.09964669 0.1053921
-0.055268925 -0.017873008 0.06052837 -0.014126924 0.10284381 0.047910947 -0.12545815 -0.04197663
0.049331658 -0.014235979 -0.15797807 -0.059042014 0.04416685 0.061180998 0.053188816 -0.043771178
0.046334352 0.11664805 -0.018144647 -0.07980595 -0.061201982 0.091173396 0.068261184 -0.0052999
-0.009199311 0.04013885 -0.039497808 -0.107656956 0.0020984418 0.0826609 0.06552101 0.06508073
-0.054400265 -0.05285001 -0.04539952 -0.00026893552 -0.024169689 0.007861228 -0.12193617 -0.0031611233
0.028852716 0.0022343076 -0.080419645 -0.010895863 0.04481059 0.14146085 -0.07287913 -0.07988169
0.02426497 0.064310916 -0.021385776 0.0059318356 -0.076599374 0.10706437 -0.084368624 -0.12478597
0.0071137194 -0.06136723 -0.0275604 -0.07340885 0.032608993 -0.0698479 0.0827315 0.095637575
-0.05476809 0.014573023 0.0565221 -0.08937383 -0.055927437 0.11239595 -0.12254696 -0.15445061
-0.038623177 0.020010212 -0.10220938 -0.07286231 -0.06844365 -0.029680986 -0.099698536 -0.022526227
0.1307334 0.13725415 0.081574276 -0.09696573 0.084989235 -0.01916424 -0.06406963 -0.042252038

lstm.bias_ih_l1 f4 [256]
00000000: 19ff 853d 5630 99bd f0e3 1e3e 7b70 f63d
00000010: 1204 133e 711a fb3c 7cca 01bd 698f b1bb
00000020: 93a2 93bd c678 17bc 6f2e 74bc 4b99 c03a
00000030: 35b6 b9bd 062d 9f3d 4e61 f63d 3697 15bd
00000040: aaf4 ec3d 3b71 51bc 02c7 98bd d36e fa3d
00000050: dce5 013e 2fa0 323c ce2c 513d 7139 a7bd
00000060: 62ee 903d c1f4 11bd 97aa bb3d 77cf f53d
00000070: df32 23bd e8d5 d73d 9a5a 193e 70de b0bb
00000080: da92 b33c d197 a1bd 5e29 acbc b013 13bb
00000090: ae66 b33d c29e da3b ad7c 4f3d a909 2bbb
000000a0: d8d5 cfbc de6a 913c 9942 98bd e9bf 193b
000000b0: 4b7c c83d 59f0 033e 321d 403d 00c5 2ebd
000000c0: ab16 073e 0863 6b3d 9bfa a53c 95b6 053e
000000d0: 55b4 923d 4d93 54bc 845f cebc 3277 1b3d
000000e0: bd9b dc3d 9b67 81bd 5981 79bc d041 aebd
000000f0: 99b4 573d 8bb4 0c3e 26e9 bbbd ae0f 9cbd
00000100: f1a9 2d3c a62f d2bc 5a7f b33c 75a5 273d
00000110: 399c 92bd a803 753c 7f36 de3d f836 103e
00000120: 8259 1ebd 0cb9 c5bc 8904 d93d e2be ddbc
00000130: ca40 ab3c 90f4 a73d 66e6 8fbd 6a20 8dbc
00000140: f43d 853d 1316 833d 59be 33bd 0c47 de3d
00000150: 898d ad3d 5059 123e 052c 88bc 927f 313c
00000160: 4649 6dbb d447 ee3c e000 f53c 3eb5 123d
00000170: eefe f03d d476 ca3d b40e 323d d20d e83b
00000180: 7cfd f93d fced 363d 8fa8 fb3c 0f26 0cbd
00000190: 4178 f13d 44f5 6e3b 2085 633d a6ed 12bd
000001a0: ef24 053e 762a 8fbb 4235 103d a977 423d
000001b0: 8021 96bd 753a 9e3d 35c0 7fbd f459 30bc
000001c0: 25a6 ee3c 49ae 2f3d f2b3 13bd 2cf3 f2bc
000001d0: cd27 b13d 1a02 173e ca51 cc3a 6053 053c
000001e0: 37af 4c3d 0044 2dbd f416 08bc b8a1 b73d
000001f0: 493c 403d 095a 7ebc 4e87 79bd 9f3a 69bd
00000200: b8e7 55bd 43b4 88bd 3f7c d53d 42d5 a1bc
00000210: bbd1 3c3c 0cb6 0e3c bd01 803c f366 8bbd
00000220: eab0 95bb 8a64 cdbb 66de 74bd cc16 2d3b
00000230: 461b 00be 4487 c43d e2b7 9b3d 072f de3d
00000240: 3e49 a33d 422a 0bbe 777f 01be 56ff f13d
00000250: cba3 89bd b256 c9bc 94a5 ce3d 2378 303c
00000260: a84b a8bd 6252 aa3c ff1d 03bd 3eff 67bd
00000270: 50e8 bc3d 345c 14bd 2b67 4ebd 53c7 01be
00000280: 16fc aabd 7ea7 133c 78df 8d3d 7b1b cd3d
00000290: f4bb d0bc f463 ae3c cead 99bd ec7c 113e
000002a0: 97ff f43d b5d2 f93c 5346 8a3c 08a6 babd
000002b0: 0c55 c2bd 5241 d7bc ed4a 9d3d 1fef 17be
000002c0: e047 853d 7077 f33c 51d0 dbbd 0ed7 4dbd
000002d0: 1a5c 41bd f68c 00be d0cc 9e3d 5b53 7cbd
000002e0: a2b9 aabc 36fc 82bc 9eaf b5bd bb8b a23d
000002f0: 795f d7bc 9d50 ba3d ce8c 623d 86b5 1f3d
00000300: d894 213d 75bd d73d a025 343d 7167 743d
00000310: c109 50bd be30 113e 1f0f a83c 2b9b 45bd
00000320: d67e d83d 853f 0dbc bbe1 10bd d1f8 13bd
00000330: a7d1 123d b29a 3ebd 239e e33d 949d b539
00000340: 31b2 9c3d 76d3 fb3d f869 6abd dcf1 073d
00000350: 58cc 3dbd e77d 083e b0b3 93bb 68e1 d3bc
00000360: 097f c83d ec48 dd3b 8928 29bd fc68 4f3d
00000370: 8d4c 85bc 7e19 40bd 9206 033e dfcd 6d3d
00000380: 4399 0abc 8dfe 013e db98 a6bb ccf7 88bc
00000390: f837 e23d 40ea 273e ec63 b43c c801 97bd
000003a0: 0c98 823c ae50 a33c 48de 0b3d a388 a23d
000003b0: 2606 b83c a561 41bd e84a 6ebd bc8a 86bd
000003c0: db5c 68bd 9294 903d 9906 ddbc 3e36 a0bc
000003d0: 7984 153e 9223 193d 4f5e 733d e34b 23bd
000003e0: a1c7 543c 835e 003e 2191 ae3c 8c0a 6dbd
000003f0: 16ea f43d 4cfc 56bd a8e1 4a3d edb4 fa3d
0.06542797 -0.074799225 0.15516639 0.12033173 0.14357021 0.030652257 -0.031687245 -0.005418707
-0.07208743 -0.009245103 -0.014903649 0.0014694122 -0.09067956 0.077722594 0.12030278 -0.03652116
0.115701035 -0.012783344 -0.07459833 0.12228169 0.1268534 0.010902449 0.05106812 -0.08165253
0.07076718 -0.035633806 0.09163397 0.120024614 -0.039843436 0.10538846 0.14975968 -0.0053976104
0.02192061 -0.07890285 -0.02101582 -0.0022442155 0.08759819 0.0066717574 0.05065601 -0.0026098287
-0.025370523 0.017751154 -0.074345775 0.0023460335 0.09789332 0.12884654 0.046902843 -0.042668343
0.13192241 0.05746749 0.0202611 0.13057931 0.07163302 -0.012974572 -0.02519203 0.03795547
0.10771892 -0.06318589 -0.015228593 -0.085086465 0.052662466 0.13740747 -0.09175329 -0.07620178
0.010599599 -0.025657486 0.021911312 0.040929276 -0.07158703 0.014954485 0.10850238 0.14083469
-0.03865958 -0.024136089 0.10596568 -0.02706856 0.020904917 0.082009435 -0.07026367 -0.01722737
0.06505957 0.06400695 -0.0438827 0.10853395 0.08474261 0.14291883 -0.016622553 0.010833638
-0.0036207004 0.029086985 0.029907644 0.035817377 0.11767374 0.09885946 0.043471053 0.0070817256
0.122065514 0.044660553 0.030720023 -0.034215983 0.11790515 0.0036462108 0.05554688 -0.03587117
0.1300237 -0.0043690754 0.03520704 0.047477398 -0.07330608 0.077259935 -0.062439162 -0.010763634
0.029131958 0.04289082 -0.03606028 -0.029656969 0.086501695 0.14746895 0.001558834 0.008137554
0.049971785 -0.042301178 -0.008306254 0.08966392 0.046932492 -0.015524396 -0.060920052 -0.05694067
-0.052222937 -0.06675007 0.10424089 -0.01975501 0.011524613 0.008710396 0.015625829 -0.068067454
-0.004568209 -0.0062680887 -0.05978241 0.0026411293 -0.12510404 0.09596112 0.07603432 0.108488135
0.07972954 -0.13590339 -0.1264628 0.118162796 -0.06720694 -0.024577472 0.10090175 0.01077083
-0.08217555 0.020791236 -0.03201103 -0.056639902 0.092239976 -0.036220744 -0.050391357 -0.12673692
-0.08348863 0.009012101 0.06927389 0.10015007 -0.025480248 0.021287896 -0.07503854 0.1420781
0.119628124 0.03049598 0.016879236 -0.09113699 -0.09488878 -0.026276264 0.076803066 -0.14837311
0.0650785 0.029720038 -0.107330926 -0.05025392 -0.047206976 -0.12553772 0.07753909 -0.06160293
-0.02084047 -0.015989404 -0.08871387 0.07936808 -0.026290642 0.09097407 0.055310063 0.038991474
0.03944859 0.10534183 0.043981194 0.059668962 -0.050790552 0.1417875 0.020515023 -0.048243683
0.10571067 -0.008621101 -0.035371523 -0.03612596 0.03584447 -0.046534248 0.111141466 0.00034640415
0.07651175 0.12296192 -0.057229966 0.03318964 -0.046337456 0.13329278 -0.0045075044 -0.025864318
0.09789855 0.0067530777 -0.041298423 0.05063723 -0.016271854 -0.04689931 0.12795475 0.058057662
-0.008459392 0.1269476 -0.0050841398 -0.016719721 0.110458314 0.16397953 0.022020303 -0.073733866
0.015941642 0.019935932 0.03414753 0.07936218 0.02246387 -0.04721226 -0.058176905 -0.0656943
-0.05672918 0.070595875 -0.026980685 -0.019557115 0.14601316 0.037387438 0.05941611 -0.039867293
0.012987048 0.12536053 0.021309437 -0.057871386 0.11958711 -0.052486703 0.04953161 0.1224154
