new_dfy/data/internal/model_load_lstm.pth (torch, 212073 bytes, 9 tensors)

lstm.weight_ih_l0 f4 [256, 8]
00000000: 4ebc 06be e63e c4bc 3c76 2dbd ac2e 5f3d
00000010: e389 3c3e a1f8 933d 1de6 05bd 24d8 1dbc
00000020: cc29 46bd 3ce3 093e 79a2 343c d322 023e
00000030: 896f 1e3e 1fc5 f73d 8c0a ea3d d76d 3c3e
00000040: c95d 9e3c 43cf f0bb ce85 7dbd ecd9 05be
00000050: 77e5 7cbc b019 08be eb8f 3bbd 2446 80bd
00000060: a997 e63c f800 5c3e ee03 223d a4ed 093e
00000070: e256 453e 6b66 1b3e 9101 443e 4e4c 863c
00000080: 64b5 493d 78ac ba3d aea5 be3d 92f5 923d
00000090: b39c 063c 47eb 9fbd 244b b83d 4a65 b6bc
000000a0: 87ae efbb d46e 50bc 9d99 a03d a6b9 4b3d
000000b0: 5fc5 c2bd 9b94 fa3d dd36 bebd 3e8f f6bd
000000c0: 9d87 283e a790 90bd b59f 433e 86e5 c03d
000000d0: 7715 cbbc b9d3 533d b7fc 2d3c 3863 a9bd
000000e0: 15b9 2c3e 494d 8a3c 9b6b 54bc 40a1 58bd
000000f0: bc54 873d b0b4 04bc 508f 103d 654a cf3c
00000100: e39d 1c3c 7ad2 453e 77a4 32bd c353 26bd
00000110: 9d0e 6abd cf21 d4bb 9a20 d9bb ea86 e03b
00000120: 074c 0f3c 5723 a53d 1e82 1d3e cba6 1b3e
00000130: 2f13 443d 11b0 703e b868 303e 06c7 0b3e
00000140: 75cf a7bd 0a8e 8e3d 9379 733b 8abe 2a3e
00000150: ab85 353d f540 d83d de17 733d b95f f93d
00000160: 86d7 bc3d 3b7f 0c3e 28e8 af3c 0d69 2b3e
00000170: 0e18 0c3e 090f da3d 2875 b83c 7f1b 1b3e
00000180: f688 333e e1ec e13d 7e39 043d e7d4 563e
00000190: c50e d438 2314 88ba 403d 613e f378 483e
000001a0: 7406 a63d ac08 053e 365b 7c3c 2b70 493d
000001b0: 4a1f 2d3d 5dd6 c93d 182f 843d 0c04 5e3e
000001c0: 48eb ca3d 19ea d53b 0784 0dbb b4b1 a83d
000001d0: 555b 923d 80c7 653d ff14 d8bc 3f75 8dbc
000001e0: 8eb5 4a3d a2d0 b7bc 527c dbbc 5138 23be
000001f0: 4b34 9cbc b416 18be ab40 61bd 8b26 f5bc
00000200: 6434 f7bd cd01 9fbc 30b7 ffbc a972 a73d
00000210: d4cd ae3d 7fc5 683d 53d5 2f3d c49e 9ebd
00000220: 89e7 173e d84a c83d 23b2 d4bc f87a 403e
00000230: 5932 cfbc 8668 233e fd16 323d 1324 073e
00000240: b9c6 2abc ca13 823d 408a 003c a4a7 afbc
00000250: 9dd8 833d f5c7 1e3e bc91 1b3e c4b5 98bd
00000260: 59da 3bbc bba3 0f3e 1a95 f13d 61b9 273d
00000270: 81fd 0f3e 9647 003e 8443 503e 5ab8 2d3e
00000280: 2356 173d 577b 3fbe c582 263d 1d0a e4bc
00000290: b63f cc3c 43b6 37be b4a8 f3bd f1cd 36bd
000002a0: 827e 6e3a 54f5 fabd 2b55 073d d2ff 05bc
000002b0: d5ca f13d 40c2 aa3d f0ba 60bd 88d0 07bd
000002c0: 4930 503e 806d a43a 42f5 363e 44e7 233d
000002d0: d106 0dbe e31f 1f3b e27f 0c3d e75e 343c
000002e0: d2a3 8dbd a377 3d3d df86 cf3d ae7c 333d
000002f0: 0de0 f1bb ae22 933d 34b5 cdbc 0217 46bc
00000300: db6a ec3d 986b 88bd b1d5 d4bd 7a72 eabd
00000310: b3f1 e8bd 1d54 023d 8aaf 9ebc 13f2 eabd
00000320: 969d ad3c e788 e8bd 3d39 873b 589d 04ba
00000330: 2d79 0bbe 0559 70bd ab3a 16be ffcc 0a39
00000340: 17bc 1e3e 567b 813c 3386 d33d c741 cdbd
00000350: a06a a43d d467 98bd 2a6e cd3d a85d 55bc
00000360: 671f 99bd 6191 d53b 8300 17bd 87de 003d
00000370: 8971 fd3d de5f f0bd dc6f 173e 99f7 2d3e
00000380: 423d b03d 6b28 9cbd 59bd 883d ad0e 2bbe
00000390: 721c 44bd fceb 8bbd 6e6c ac3c 070f 0fbd
000003a0: 26f6 6bbd e820 073e 2b17 213e 9b8e c33d
000003b0: a88a e13d 203f e93d 9bda bb3d eeb3 b63d
000003c0: 71fa eb3d 643b b0bd 0d9c 673d 65ac f43d
000003d0: d221 093e 1271 513d ee61 0a3e 2063 b13c
000003e0: 1be2 8fbd 0ad4 e9bc 5cac b5bd 0790 f53d
000003f0: 0353 bb3d ed57 5cbd 497d 8f3d 3cd7 cd3d
-0.1315777 -0.023955774 -0.042349085 0.05448787 0.18411975 0.072251566 -0.032690156 -0.0096340515
-0.048379704 0.1346559 0.011025065 0.12708597 0.15472235 0.12098145 0.11427793 0.18401276
0.01933183 -0.0073489263 -0.061895184 -0.13071412 -0.015435568 -0.13291049 -0.045791548 -0.06263378
0.02814849 0.21484745 0.03955453 0.13469559 0.19271424 0.15175788 0.19141223 0.016393807
0.049245253 0.09114927 0.09308945 0.07175745 0.008216071 -0.078085475 0.08998707 -0.022265095
-0.0073145065 -0.012721736 0.078417994 0.049737595 -0.09510302 0.122353755 -0.09287808 -0.1203904
0.16457982 -0.0705884 0.19103892 0.09418778 -0.024790509 0.051715586 0.010619334 -0.082708776
0.16867478 0.016882556 -0.012965108 -0.052888155 0.06607959 -0.00809972 0.035292923 0.025304029
0.0095591275 0.19318572 -0.043613877 -0.040607225 -0.057142843 -0.006473757 -0.006626201 0.0068520205
0.008746154 0.08063381 0.15381667 0.15200345 0.047869857 0.23504664 0.17227447 0.1365014
-0.08193866 0.069606856 0.0037151321 0.16674247 0.04431693 0.105592646 0.059348933 0.12176461
0.09220795 0.1372041 0.021473005 0.16739292 0.13681051 0.10647399 0.022516802 0.15147208
0.17532715 0.11031509 0.03228139 0.20979653 0.00010111699 -0.0010381978 0.21996021 0.19577388
0.081066996 0.1299159 0.015402606 0.049179237 0.042266168 0.0985534 0.06454295 0.21681231
0.099081576 0.0065281508 -0.0021593587 0.08237019 0.071463265 0.05609846 -0.0263772 -0.017267821
0.04948955 -0.022438351 -0.026792679 -0.15939452 -0.019067904 -0.1485241 -0.054993313 -0.029925605
-0.120705396 -0.019410038 -0.03121528 0.081761666 0.08535352 0.056828972 0.04292805 -0.07745126
0.14834417 0.097799 -0.025963848 0.18796909 -0.025292562 0.15957841 0.043478955 0.13197355
-0.010423356 0.06351431 0.007845461 -0.021442242 0.064378 0.15505965 0.15192312 -0.07456544
-0.011465632 0.14027302 0.11796017 0.040948275 0.14061548 0.12527308 0.20338255 0.16964856
0.03694738 -0.18699394 0.040652055 -0.027836854 0.024932723 -0.17940621 -0.11897412 -0.044629995
0.00090978306 -0.12253824 0.033040207 -0.008178668 0.11806265 0.083378315 -0.054865777 -0.033157855
0.2033092 0.001254484 0.17866996 0.040015474 -0.13772132 0.002428048 0.034301646 0.011008955
-0.06916012 0.046256673 0.101331465 0.043820076 -0.0073814453 0.07184349 -0.025110818 -0.012090446
0.115438186 -0.06661147 -0.10392321 -0.11447616 -0.113742255 0.031818498 -0.019370813 -0.11471953
0.021193307 -0.11354237 0.0041266964 -0.00050588464 -0.13620444 -0.058678646 -0.14670818 0.00013237073
0.15501438 0.015805881 0.10328331 -0.10022312 0.080281496 -0.07441679 0.10030778 -0.013022818
-0.07476693 0.0065175747 -0.036865722 0.03146222 0.12375171 -0.11737035 0.14788765 0.16988982
0.08605434 -0.076248966 0.0667674 -0.16704817 -0.04787869 -0.0683212 0.021047797 -0.03492644
-0.057607792 0.13196146 0.15731494 0.09548684 0.11012775 0.11388993 0.09172555 0.089210376
0.11522377 -0.08605078 0.056545306 0.11946944 0.13391808 0.051133223 0.1351392 0.021653712
-0.07025548 -0.02854349 -0.088707656 0.11990362 0.091466926 -0.05379479 0.07006318 0.10050818

lstm.weight_hh_l0 f4 [256, 64]
00000000: 17f5 033e 5e03 21be a95a 4a3d 3057 263c
00000010: 62a8 5abc 2ad5 60bc aab4 17bc 5229 05ba
00000020: fa9e 0bbe 7dc0 fbbd 1ffe abbc adbb 17bd
00000030: 6f0f 7ebd 0dd5 f3bd 1ccf ed3d 28c7 0e3e
00000040: 2a8e 633b 3729 373c 12d8 6d3c 580c db3d
00000050: 7c48 e73d ca46 773e 0e3f b53d 91de a5be
00000060: 40dc a93c c8ba 583d ffc6 003e cc4e 9fbd
00000070: ca11 2b3e 5bd5 81bd a48e 8a3d a9dc 8fbc
00000080: 29d1 293e cf94 0a3e d8de 29bd f5d3 4e3c
00000090: d6c7 043e c0af 033e 3e31 efbd 8166 e1bd
000000a0: 16ad 673e b997 563d 96d7 2cbc da44 af3b
000000b0: b2f1 833d c651 253d 318c 89bd a13c 19be
000000c0: 2e40 71bc 5706 113b faa3 d03d e769 adbc
000000d0: fe07 c03d 84a9 df3d 3660 953d 6b5f f1bc
000000e0: 023e be3c e235 113d 3330 97bd cde1 4d3d
000000f0: 4a1c 5ebd 521b 443c d4c8 b13e 67b0 9a3c
00000100: e334 c63d 8183 4dbd 6d7f 80bc 6ad9 54bd
00000110: f990 403e c02c 85bd f13e 8d3d dc29 e0bb
00000120: 44bd 67bd c131 9fbd bb86 5d3d e32e a4bd
00000130: 4512 15be 4479 4abd 2fa2 8ebd ee42 f63d
00000140: d811 3ebd b110 a8bd cc71 4d3d c6b4 ab3c
00000150: 99aa fcbb 6f0f 98bd ee84 2bbc 3f32 a9be
00000160: 4d96 453d ee9b b9bc 2f07 6dbc 837c a03d
00000170: 1223 943d 6039 9dbb 113f 1d3e fcfc 173d
00000180: 3f50 0c3e a429 ca3d 28b4 80bd 3bbd 733d
00000190: 758b 2bbd f480 7dbd 0699 03bc 0f70 5e3d
000001a0: 1568 c63c e95a 9cbd 9690 75bd b909 c13d
000001b0: bc70 babb cd88 a33d 2176 d3bd 83d5 12be
000001c0: f4ba 26be 2713 883c 3ed9 103e 3ec4 103e
000001d0: 484d c63d dfce e3bd 47b1 253e 95f1 dc3c
000001e0: 1919 18be a32a 8bbd e8dd 0d3e af68 523d
000001f0: 52aa 2e3d 73ba 08bd e1c9 c3bd 9314 f83c
00000200: 3a37 553d 746a e0bd 097d 453d 0d65 cd3d
00000210: d99a e7bd a057 bfbd 48d1 90bd 76c2 e4bd
00000220: 3726 23bc 0cbf 1d3d 4886 183d 44e2 713c
00000230: aab5 5ebb 72ed b5bd 8b9c 193d 7b03 9ebd
00000240: fc33 b0bc 7945 b6bd 0225 fcbc 6434 fcbd
00000250: bcd7 263d ac1d ccbd 000c 0ebc 128c 093e
00000260: b7dc cbbd f198 5bbd d703 b2bd 7fc4 68bd
00000270: 353a dfbc 3ce0 c53d 5e21 c4bd 8c72 0fbc
00000280: bb27 40bc 9490 513d 7a61 dabc 11f1 203d
00000290: 5e45 b8bd 6536 55bd accf d03d 8e72 763d
000002a0: 98b1 47be f51c f53d 0502 d5bd ee94 58be
000002b0: 418f 5d3b 9550 28be 4aa5 8f3c e6ee e2bc
000002c0: f89b 0d3d 1163 c7bd 6072 f23c cc11 583d
000002d0: b312 c53c faf3 1abb 257b aebc a9b4 003c
000002e0: 7a31 033e 3344 5cbd 5f65 cb3c f1d2 843d
000002f0: 194a b53d b92d c2bc ca57 08be d93c 96bd
00000300: 85e9 143d 0d57 93bd 2421 813c 1909 13be
00000310: 00c4 343b 6434 0abc ef64 50bd c872 a1bd
00000320: 32be 593d 2b4d dcbd 5869 6d3d ca2f 2ebe
00000330: 9af4 1c3d ee26 e9bd 9176 ce3d 5885 66bc
00000340: a7a2 4fbc d33e 6fbc 6504 07bd 5d83 343e
00000350: a3fb 13bd 3765 143e 1d92 87bd 5856 c0ba
00000360: 892a adbd 81b0 0b3e 28db dc3d 796c 52bd
00000370: de4c b1bd 5af4 c83c a6a8 103e 9ffd 58bb
00000380: 3a36 c53c 3d11 183d f97f aa3d 42a5 f33b
00000390: 3e8d 1e3d 1b34 9dbd 15e9 adbc 8c95 813d
000003a0: 5e97 3a3e c7ff 573d 690a 513d 9ae4 8fbd
000003b0: 955f 103d 07d0 31bc f7c5 90bd 13b2 f239
000003c0: 2c15 593d bdf4 3f3c ad18 1b3e fa27 d53c
000003d0: 96fe 243d 5f85 9ebc 9204 863d 8799 a43d
000003e0: 9d9d 7b3d 3a7c ad3a 369e f03d d952 243e
000003f0: 1993 00bd dc57 8d3d f817 943d 9967 f3bb
0.12886463 -0.1572394 0.049402867 0.010152623 -0.01334581 -0.013722697 -0.009259382 -0.00050797046
-0.13634863 -0.122925736 -0.020995198 -0.037044216 -0.062026437 -0.119058706 0.116117686 0.1394316
0.0034722188 0.01117926 0.014516847 0.10695714 0.11293122 0.24148098 0.08849917 -0.32396367
0.020734906 0.052912503 0.12575911 -0.07778701 0.16706005 -0.063395225 0.06765488 -0.017561274
0.16583695 0.13533328 -0.041472286 0.012623777 0.12966856 0.12860012 -0.11679314 -0.11005879
0.22624621 0.052390788 -0.010549447 0.005348784 0.06442584 0.04036119 -0.067161925 -0.14964534
-0.014724774 0.0022129023 0.10187526 -0.021168662 0.093765244 0.109210044 0.072937414 -0.029464444
0.023222927 0.035451777 -0.0738224 0.05026417 -0.054226197 0.011969404 0.34723532 0.018882943
0.09678056 -0.05017424 -0.015685761 -0.051965155 0.18805303 -0.06502676 0.06896771 -0.0068409275
-0.056576982 -0.07773162 0.054083567 -0.080167554 -0.1455775 -0.049432054 -0.06964528 0.120244846
-0.046403736 -0.08206309 0.050157353 0.020960223 -0.0077107665 -0.07424819 -0.010468705 -0.33046147
0.04823904 -0.02265736 -0.014467045 0.07836249 0.07233252 -0.0047980994 0.15356089 0.0371065
0.13702486 0.098712236 -0.06284362 0.059506636 -0.041881043 -0.061890557 -0.008032089 0.054306086
0.024219552 -0.07634527 -0.05995234 0.094256826 -0.0056897085 0.07985077 -0.10325266 -0.14339261
-0.16282254 0.016610695 0.14145371 0.1413736 0.09682709 -0.11123442 0.16180907 0.026970664
-0.14853324 -0.06795242 0.13854182 0.051369365 0.0426429 -0.033380937 -0.0955999 0.030283248
0.05205462 -0.10957804 0.048214946 0.100290395 -0.11308832 -0.09342885 -0.07071167 -0.11169903
-0.009957842 0.038512275 0.037237436 0.014763419 -0.0033982792 -0.0888318 0.037502807 -0.077155076
-0.021509163 -0.088999696 -0.030779365 -0.1231468 0.040733084 -0.09966597 -0.008669853 0.13432339
-0.099542074 -0.053612653 -0.08692139 -0.05682802 -0.027249435 0.0966191 -0.09576677 -0.008755337
-0.0117282225 0.05116327 -0.026657809 0.0392924 -0.08997606 -0.052053828 0.1019586 0.06016784
-0.1950134 0.11968414 -0.10400776 -0.21150562 0.003380731 -0.1643699 0.01753487 -0.027701806
0.03457257 -0.09735692 0.029595554 0.052751347 0.024056768 -0.0023643957 -0.021298954 0.007855573
0.12811843 -0.053775977 0.024828611 0.064855464 0.08852024 -0.023703443 -0.13314739 -0.073358245
0.036355514 -0.07194338 0.015762873 -0.14358939 0.0027582645 -0.008435342 -0.050877508 -0.07883221
0.0531599 -0.10756906 0.05796179 -0.17010418 0.038319208 -0.113843784 0.100812085 -0.014069878
-0.012673057 -0.014602381 -0.032963175 0.17628236 -0.03612865 0.14491735 -0.06619666 -0.001467417
-0.084553786 0.1364155 0.10783988 -0.05137298 -0.086572394 0.024530578 0.14126834 -0.0033110154
0.024073709 0.037125815 0.0832519 0.0074354718 0.038708918 -0.07675954 -0.021229306 0.06327352
0.18221804 0.052734163 0.05103532 -0.07026024 0.035247404 -0.01085282 -0.07069009 0.00046290513
0.052998707 0.011716065 0.15146132 0.026020039 0.040281855 -0.019350706 0.065438405 0.080370955
0.06142961 0.0013235875 0.11748926 0.16047229 -0.031390283 0.069015235 0.07231134 -0.0074281213

lstm.bias_ih_l0 f4 [256]
00000000: e876 6f3e 9744 37bd 7804 c8bd 0e1c d73d
00000010: 94b7 12be 0495 c33d 51f8 cc3c 22f7 db3c
00000020: 6ad1 873c cdfb 393e d337 9abd 0ac2 043e
00000030: 41f9 f73d aca1 9bbb 24a0 073e efac 05be
00000040: 0167 403e f414 b13b 2ec5 7f3d 302f eb3c
00000050: c798 bf3a 6c9e 2fbd 076d 1dbe 6ab8 383e
00000060: 20be d93c 1417 b6bd 7c8c 48bd b0d3 46bd
00000070: 0367 5cbd 7be2 16bd e4e8 003c dc2e 453d
00000080: 0a1b 333d 3313 75bd 5a95 d9bd a99f 70bd
00000090: 46eb 453d ad43 0c3e 25b0 f1bd 6be2 883d
000000a0: f2f7 15bd 9b2a 1fbd 8f1f 213d 1c32 123d
000000b0: 4cce 403d b65e 8fbd 5708 a23c 8043 f73c
000000c0: e863 6a3c 530d 423d 173f 053e 7d04 c4bd
000000d0: a1e6 923d 1db8 7abd d7ac 42bc 1c52 943d
000000e0: b1f9 2ebd 772e f938 34d7 7bbc d77d 4c3d
000000f0: d3f3 0abe 1b5e 313e fc28 683e f1ca 1f3d
00000100: 2206 043e 5c27 27be 928e f3bd 5c58 803d
00000110: a215 e0bc e23a 9a3d ea57 093d b662 4dbd
00000120: 5888 11bd 8f4d 083c 997c ffbc 20fd cc3d
00000130: 5ac3 883d c725 a3bc afc5 e13c c429 f83d
00000140: 8c28 acbd e7db 48bd 15aa 95bd 51de 753d
00000150: 4b5c 6ebc 4ef3 2d3e 309f aebc c183 a73d
00000160: 8900 91bd 47ef a0bd f372 ce3d f2c5 9abd
00000170: 4586 3abc b26f ddbb 5bef ed3d f63d 1b3d
00000180: 7bdd 9fbd 094f 203e 934d 4bbd 75e4 773a
00000190: 8d02 e83d bc75 a33c 6c18 403c d46f 9d3d
000001a0: acbf b2bd 2b6d 273e ad3d 7f3d 9b75 113e
000001b0: 41ae 213e 25e7 92bd 4a62 59bd c24e 3b3c
000001c0: c74b 4d3d 4d41 80bc e534 063e c909 ee3d
000001d0: b1a5 bd3d 6f47 1dbc 5f5a 09bc fce6 513e
000001e0: 568c cc3c 29c7 dbbc 6c03 963d c0fd 79bd
000001f0: 097d 0abe d933 313d 1ad8 1e3e d4f7 a7bc
00000200: 6a1c 5abd 19fc b2bb 4160 46bd 49cc c7bd
00000210: 9609 d43d e93b 433e 4b76 babd ba0b 913d
00000220: 56d8 35bd f77a 38bb efa5 8f3d d970 203d
00000230: 4d14 08be ff7d 5abd 2d63 923b f5d3 5d3d
00000240: fe8e c33d a380 983d e168 1bbe 8b8a efbc
00000250: 160b 013d 28b1 b3bc 555c bc3d 65ac 29bb
00000260: 9ff9 b43d 5b04 053e b739 0f3e 3084 c4bc
00000270: ad57 b1bd 100c 83bd c4fc bdbd 912e ac3d
00000280: bc33 063e 3245 cd3d 1971 a7bd 42c5 133e
00000290: cb95 7fbd 5ca4 813d fcc0 463d 1246 e3bd
000002a0: 1330 74bd b5ef bbbd 5297 da3c 8c9a 0c3e
000002b0: 56bd 34bd c76d 90bd 82ac 2ebe c46b bbbd
000002c0: e41b 21bd 1a54 73bd 82f8 49bd cb5e 4a3d
000002d0: 73d9 433d 86a1 50bb 2aa7 883d 8b8e ae3d
000002e0: ce49 72bc 138c 793d 57c1 7abe a35c b93d
000002f0: 121a 4abc 86bc 83bb 219d 163e 81ec c7bd
00000300: 1af5 003d 2357 273c c8d3 95bd dcab 5d3b
00000310: a373 b83d a6d4 023e 88e5 c6bc 840b 3cbd
00000320: f1b9 613b 4527 913d 5e13 1ebe 2391 653e
00000330: edf3 033e 8580 cdbc e9ec a53d c42f 43be
00000340: 009a 85bd b24a df3d b5c1 0bbd 10fc f03c
00000350: 0e9e e83d d66c a93d bc70 f5bc f899 133e
00000360: 0a3a 8f3d 94c8 ebbd ccfd 2d3d 2ba6 41bb
00000370: 88d0 f6bd 9787 2a3c 9ec7 c3bd edc0 ac3b
00000380: 810e aebd 4d1b 8cbd 2059 b93d e879 2bbe
00000390: 8259 8eba baee 0c3e 3bde fe3c f4f9 ca3d
000003a0: 98e4 433e a437 8b3c 2fb4 9dbd 5a99 dabd
000003b0: 4ee5 093e 52b6 b53d 55fc c93d 6e46 a6bd
000003c0: 99aa 593b 72f9 62bc c9fc a33d 225a 38be
000003d0: 013d 55be aadc ec3c efbd f73c 4f25 2c3d
000003e0: 8042 b93c 21b1 a23d 482f 923d ecc3 e9ba
000003f0: dbe1 c7bd dcf2 523c fe2b 083e a6b1 11be
0.23385203 -0.044743147 -0.09766477 0.10503398 -0.14327842 0.09549907 0.02502075 0.02685124
0.016579349 0.1816246 -0.07530179 0.12964645 0.12108088 -0.0047494974 0.13244683 -0.1305425
0.18789293 0.005404109 0.062443905 0.028709024 0.0014617675 -0.042875692 -0.15373622 0.18039098
0.026579916 -0.088911206 -0.0489621 -0.048541725 -0.053809177 -0.036837082 0.007868025 0.04814039
0.04372696 -0.059832763 -0.1062419 -0.058746014 0.048320077 0.13697691 -0.11801175 0.06683811
-0.036613412 -0.03885899 0.039336737 0.03569232 0.04707174 -0.070004866 0.019779367 0.030183554
0.014306046 0.04737599 0.13012348 -0.095711686 0.07172895 -0.06121074 -0.011882029 0.072422236
-0.042718593 0.000118819 -0.015371133 0.049924698 -0.13569574 0.17321055 0.22671884 0.0390119
0.12892964 -0.16323608 -0.118924275 0.06266853 -0.027354065 0.07530762 0.033531107 -0.050142966
-0.03553042 0.008319273 -0.031187342 0.10009217 0.06677885 -0.019915475 0.027560083 0.12117341
-0.08406171 -0.04903784 -0.07307831 0.06002647 -0.014548372 0.16987345 -0.02131614 0.08179427
-0.0708018 -0.078581385 0.100805186 -0.07557286 -0.011384551 -0.0067577 0.11617919 0.037900887
-0.07805916 0.1565515 -0.049634527 0.0009456345 0.113286115 0.019953601 0.011724573 0.07687345
-0.08727965 0.16350238 0.062314678 0.14205019 0.15789129 -0.071729936 -0.05307225 0.011432352
0.050121095 -0.015656138 0.13106115 0.1162296 0.09260119 -0.009599551 -0.008383363 0.2049827
0.024969261 -0.026828365 0.073248714 -0.06103301 -0.1352426 0.043262336 0.15512124 -0.020503916
-0.053249754 -0.0054621813 -0.04843164 -0.09755761 0.10353391 0.19065823 -0.09104594 0.07082315
-0.044395767 -0.0028149465 0.07014071 0.03917012 -0.13288994 -0.053342815 0.004467389 0.054157216
0.09548758 0.074464105 -0.15176727 -0.029240867 0.031504713 -0.02193506 0.091972984 -0.0025890109
0.08836674 0.12989943 0.1398686 -0.023988813 -0.08659301 -0.06398785 -0.09276727 0.08407319
0.13105673 0.100229636 -0.081758685 0.14430717 -0.062398713 0.06330177 0.048523888 -0.11097349
-0.05961616 -0.0917658 0.026683483 0.1373083 -0.044125877 -0.07052188 -0.17057994 -0.09151414
-0.03933324 -0.059406377 -0.04930926 0.049406808 0.047814798 -0.0031834557 0.06672509 0.08523282
-0.014788104 0.0609246 -0.24487816 0.09050872 -0.012335317 -0.0040202765 0.14708377 -0.097619064
0.031483747 0.010213646 -0.07315785 0.003382436 0.09006431 0.12776431 -0.02427937 -0.04590942
0.0034443105 0.07087568 -0.15437075 0.22418647 0.12886019 -0.025085697 0.08101828 -0.1906119
-0.06523514 0.10902919 -0.03412028 0.029417068 0.113582715 0.08272712 -0.029960983 0.14414203
0.06993492 -0.115128666 0.042478368 -0.0029548507 -0.12051493 0.010408304 -0.09559558 0.005272022
-0.0849886 -0.06841145 0.09050202 -0.16745722 -0.0010860416 0.13762942 0.031111827 0.09910956
0.1913017 0.016994305 -0.07700383 -0.10673781 0.13466379 0.088726655 0.09862582 -0.08118902
0.0033213256 -0.013853418 0.08007199 -0.18003133 -0.20824052 0.028913815 0.030241935 0.042027768
0.022614717 0.07943941 0.071379244 -0.0017834879 -0.097598754 0.012875285 0.13298032 -0.14227924

lstm.bias_hh_l0 f4 [256]
00000000: 4cdb 523d bc96 223d 95c0 0abe 06bb e13d
00000010: ec99 e5bb 0805 e3bc f714 003d d61d 953d
00000020: 9e3a 35bd 3e1f a8bb 5652 90bd 55e5 7f3c
00000030: 14f1 5e3e de6b 413e ec9c 033e 75df 2cbe
00000040: f372 d03d 3ca7 f03d 7375 963d 8e86 3b3e
00000050: 5ced a0bd fcfc e73d 5974 a9bd 1756 4f3e
00000060: fe18 20bd 56bb 5abe c6f5 3e3d 9602 60bd
00000070: cb7b 40be e4e6 2f3e f44d a4bd 9895 01bd
00000080: 331e cdbc a0e5 303d 32e6 54bb b1d7 39bd
00000090: e7c1 173e bab5 933d 5ab7 163d acfe eebb
000000a0: 071b fe3d 1e25 963d 4881 f83c cedc b3bd
000000b0: 83fd 363e 20a4 0b3e 2664 403d b247 86bc
000000c0: 51f2 0d3e 08a7 12be ce9c 0e3e 8bca c03c
000000d0: 870f 6f3d 9500 e13d 8322 edbd f177 01be
000000e0: 793e 3b3b c09e 363d 7bd4 26bc 12ac f73d
000000f0: 55ef 65bd 05fd 3e3d 13db b93d f261 d6bd
00000100: 1a38 1ebc ffed adbd 92c0 ecbd 313a d73c
00000110: ad6c 0e3e 1132 6b3d 9b58 883d ec4a 743d
00000120: aa84 433c d143 b6bc efc3 99bc ec94 093d
00000130: 7ac2 673c 91e4 713d c274 09bd 2292 8dbd
00000140: 1611 d43c 9ca9 82bd 782e 813d bc57 4c3e
00000150: 481c 883d c331 173e 9893 e1bd 6a75 063e
00000160: c965 0dbd e643 1bbe ef57 8ebd 046b 3cbd
00000170: d4bc ed3d f5de 213e d0c1 3b3e 2c7f e5bd
00000180: ea4a 28be a3d3 8a3d c192 b1bb 7323 f63d
00000190: f9e0 00bd f887 2e3e 20c3 c23d 0042 8c3d
000001a0: df17 1e3e 00aa 253e afec 58bc fc8a 23bd
000001b0: 6ecc a93d 0908 dcbd e947 48bc ce76 cb3d
000001c0: 0112 543e 8024 663d 225d 933d 3c92 4a3e
000001d0: 9155 e83d 2ef2 a23b 7843 81bc 4afc 5b3e
000001e0: f91e a83d 97ea 343e 11b6 153d 365f 3a3d
000001f0: dbbf a9bd f409 a4bd 88a3 313e 0e65 0cbd
00000200: 8246 bf3d dbd9 073d 7799 d13d 666a 25be
00000210: c427 7bbd 5a5f 883d 710a 453d 2d0a 023e
00000220: 70af 24be 00ca 81bd 6c44 b1bd 9bb4 7dbc
00000230: f7a8 b2bc bbad 9f3d c8bc 1abc 0379 0ebd
00000240: bdfb 2bbc cdc0 ad3d 92ee 28be ff3f 0f3e
00000250: 2350 7b3d c2af 383d 2fcc d33d 3899 fd3b
00000260: ddbf d73c a9b9 b13c e678 073e 356e 723a
00000270: 42cb 933d 223e c9bd 80d2 413d 16fc 193d
00000280: b597 123d 6a1c 9d3d 23b5 97bc ba70 6d3c
00000290: 7c73 863d 6930 7abd 89b0 cfbd f1da 1dbd
000002a0: c46f 25bc cf5a 7e3d 7371 10be f95e 113e
000002b0: 45e8 deba 2fa4 ff3d ffe5 513d de97 c3bd
000002c0: 81f7 833d 7d19 523d 6f35 043d bdc2 87bd
000002d0: fb78 cbbd 42cf 2a3e 15dd ff3d f89a 18bd
000002e0: 89c1 a73d 7d7f 963d c917 d2bd 934a a7bc
000002f0: d730 8cbd aa06 fc3d f158 8dbd d810 9e3c
00000300: d72f 2d3e c117 123e e00f babd 971f 613e
00000310: e555 9ebd 5d69 0a3e b1d8 b4bd 809e 113b
00000320: 90e9 603d 6a7b 6ebd b7d9 31bc 0f35 263e
00000330: fcc4 03bd 5670 883d a794 34bb 6dc6 19bd
00000340: 48cf 303e 347c ab3c d3f0 f13d 7c22 473e
00000350: 2487 1fbc fffb 1fbd d680 88bd 57c7 2a3e
00000360: 9d59 553d 8f76 b53d 3851 e0bd 8337 13bd
00000370: 1e1f 7c3b 824e b83d 619f 21be b667 de3d
00000380: 17f4 a9bc ee71 83bd 7be9 db3c 38b5 15be
00000390: 8c02 653d 4ce8 373d b300 e73d 3953 95bc
000003a0: 2e34 153c 3216 28be c498 733d 728f eebc
000003b0: 74b7 213e 38b4 893c cad0 70bd fb50 3d3d
000003c0: 233e ac3c f213 4dbe 92d4 443b c3db cebd
000003d0: 724b f0bd 4478 19bd f396 eb3c 1fb3 ccbc
000003e0: 93bd 963d 87ab 243e c142 e23d 8295 c1bc
000003f0: 4d83 7dbc aaf1 8dbb 8479 1a3e a8a0 18bc
0.05147867 0.039694533 -0.13550027 0.11022 -0.0070068743 -0.02771236 0.031269994 0.072810814
-0.044245355 -0.0051306775 -0.07046954 0.015618642 0.21771652 0.18888804 0.1285283 -0.16882117
0.10178175 0.117506474 0.073466204 0.18313047 -0.07857773 0.1132755 -0.08274145 0.20247684
-0.039086334 -0.21360525 0.046621107 -0.054689966 -0.18797223 0.17177922 -0.08022681 -0.031636804
-0.025038814 0.043187737 -0.003248584 -0.045371715 0.14820062 0.07212396 0.03679595 -0.007293543
0.12407499 0.07331298 0.030335084 -0.087823495 0.17870145 0.13636827 0.04697051 -0.016391609
0.13861968 -0.1432153 0.13927004 0.02353408 0.058364417 0.10986439 -0.11578848 -0.1264341
0.0028571172 0.04458499 -0.010182495 0.12093367 -0.056136448 0.046628017 0.09074988 -0.104679
-0.00965693 -0.0849266 -0.11560167 0.026272865 0.13908644 0.057420794 0.06657525 0.059641764
0.011933485 -0.022249134 -0.018770186 0.03358929 0.014145488 0.05905587 -0.033558615 -0.06912638
0.025887053 -0.06380007 0.06307691 0.19955343 0.06646019 0.14765076 -0.110144794 0.13130727
-0.034520898 -0.1516262 -0.06950366 -0.046000496 0.11608282 0.15807708 0.18335652 -0.11205897
-0.16434827 0.06778648 -0.0054191058 0.1201848 -0.03146455 0.17044055 0.095098734 0.06848526
0.15438794 0.16178131 -0.0132400235 -0.039927468 0.08290945 -0.1074372 -0.012224176 0.099347696
0.20709993 0.056187153 0.07195498 0.19782346 0.113444455 0.0049727177 -0.015779242 0.2148296
0.082090326 0.17667614 0.036550585 0.045500956 -0.08288547 -0.08009711 0.17347538 -0.03427606
0.0933962 0.033166748 0.10234349 -0.16153869 -0.06131722 0.06658812 0.04810566 0.12699194
-0.16082549 -0.063373566 -0.086556286 -0.015484954 -0.021809084 0.07796808 -0.009444423 -0.034783375
-0.010497031 0.084840395 -0.16497257 0.13989256 0.06135572 0.04508949 0.10341679 0.0077392124
0.026336605 0.021694975 0.13229713 0.00092479895 0.07216503 -0.09826304 0.04731989 0.037593924
0.03578921 0.07671435 -0.01851899 0.014492208 0.06564996 -0.061081324 -0.10141093 -0.038538877
-0.010097448 0.06209832 -0.14105777 0.14196385 -0.0017006478 0.124824874 0.051244732 -0.09550451
0.06443692 0.05129384 0.03227752 -0.0662894 -0.099351846 0.16680625 0.1249334 -0.037257165
0.08191211 0.07348535 -0.10258443 -0.020421302 -0.06845253 0.123059586 -0.0690173 0.019295141
0.1691278 0.14266874 -0.09085059 0.21984707 -0.07731227 0.13516755 -0.08830393 0.0022219718
0.054910243 -0.058223166 -0.01085513 0.16231178 -0.03217028 0.066620514 -0.0027554424 -0.03754275
0.17266572 0.020933248 0.11813512 0.19446748 -0.00973681 -0.03905868 -0.066651985 0.16677605
0.052087415 0.08860504 -0.10952991 -0.035941612 0.0038470696 0.08999349 -0.15783454 0.10859625
-0.020746274 -0.06418215 0.02684473 -0.1461991 0.055910632 0.04489927 0.1127943 -0.01822816
0.009106679 -0.16414717 0.05947186 -0.029121134 0.15792638 0.016809568 -0.058792867 0.046219807
0.021025723 -0.2002714 0.0030033928 -0.1010051 -0.1173314 -0.03746821 0.028758502 -0.024987755
0.07360377 0.16081057 0.110478885 -0.023630861 -0.015473199 -0.004331787 0.15085417 -0.009315647

lstm.weight_ih_l1 f4 [256, 64]
00000000: c943 d23d 59a0 16be 202b 933d 49da edbc
00000010: a03f bb3d e15d 9a3d 8b21 3bbe 1a7f c8bd
00000020: 358f e13d 5973 c6bc bec5 673c 17fb 08bd
00000030: a330 8abd f8c7 4cbc b83e a63d cd8d b6bd
00000040: 51d0 ee3d 2618 5d3c cd94 3e3d a9f1 3c3c
00000050: bf11 9e3d be94 f13d 73d5 f73d 269a 07be
00000060: c71f 273e b990 303e 92df 5f3d 1de8 393e
00000070: c835 87bd 214b 62bd 27ec b83d b982 febc
00000080: d6f6 5abd 19ce a53c 1c00 8cbc b65f 4c3e
00000090: 2bd9 e53d c415 a53d 1245 0ebe ce9e fdbd
000000a0: 9f70 e4bc 8f44 283d 2134 5fbd f452 f2bb
000000b0: c4f8 8ebc f905 d23d b67b d93c ee43 febd
000000c0: 28a3 ddbd 55e4 eabd 85c4 183e ae0e 913d
000000d0: ab56 a23d 598e 0cbe 0ed3 963c 01b1 ef3b
000000e0: 9a16 89ba 4ba2 20be 8e3c ec3d b250 4d3e
000000f0: 53f2 33ba 1e38 9cbd 3a7c 71bd 16ea be3d
00000100: 6b1b 273d c118 74be ec36 d53d 4626 633d
00000110: 0115 7f3d 5995 f1bd 4a52 84be 60c8 acbd
00000120: 9a15 cd3e aa9e 35bd 2186 91be 242b 513d
00000130: 4c1b 4e3d 83e8 013e beef 093d 2725 d63d
00000140: ca95 f1bd c008 ac3c 6796 113d 2194 b7bd
00000150: 3926 0f3d a500 e4bd 351c 4c3d c44e 743e
00000160: 9398 80bc f636 aebd 199d 243e f143 bf3d
00000170: d478 613d 5712 09bd 3934 963c d09e 3dbe
00000180: e097 e7bd dc95 eabd b089 88bd 15e4 d93d
00000190: 3cbe 233e f215 82bb de07 44bd 40c6 b93d
000001a0: 7d16 84be b069 4ebe 4323 2abe 988f 223d
000001b0: 2cd1 dd3d b5a4 8fbd fffc c73e fc06 26bd
000001c0: e7bd 9d3c 9c06 5dbd 8724 1ebd 00dc c13d
000001d0: be38 5fbd 88d7 4dbd 50cc f1bb c60f a5bd
000001e0: 86a1 a9bc 2568 223e edf0 d23e aad0 2938
000001f0: 18a2 e53c 8d60 b4bd ad16 63be 2871 93bd
00000200: f949 d63c 71b2 583c 3f69 be3d 3071 163a
00000210: 14f7 433d b358 983c e21d 0fbe 8746 68be
00000220: 4790 443d 0e89 a0bc 5be8 19be ad22 42be
00000230: 3e9c 16be aa78 63bd 068c dd3c 6bc1 a1bc
00000240: b63f 6e3e 0f63 0bbd 16a2 80bd e3af 423e
00000250: 8bdc a13d 5a84 873c 5984 593d 474c 1c3d
00000260: 49f3 f83d bbe8 f63d be50 4f3e 0c53 153e
00000270: 8068 9a3c d1f0 14be ef22 863d 4d1f ec3c
00000280: 4a46 003e ba3e e33d d3ac 1fbe 491c 313e
00000290: b819 3cbc 18a1 893d 143a b9bd 704f 1abc
000002a0: 07b0 f93d 7676 17be c3c1 efbd e9b5 4ebd
000002b0: 625f 933d 6984 e43e c8b3 763d 18f4 563d
000002c0: b742 d8bd 8176 f2bc 3421 413e b743 dc3d
000002d0: 3dc3 a0bd d94f 353e 8dd8 2b3e f26a 1abe
000002e0: 875b 13be a828 abbd 0884 02be 65eb 1c3e
000002f0: 79a9 0b3d 6303 e7bd d413 0a3d d629 c93d
00000300: 3fb8 3b3e be01 f63b b8c2 b0bd 071a eebb
00000310: 5597 113e 2803 bebd 6d35 95bd 8381 423e
00000320: 685f 4ebe 99fa 39be 9c79 06bd 1228 d1bd
00000330: 3d79 b93d 6b26 8dbd 50f2 9b3d c68b 97bd
00000340: c30c 953d c4e6 cebd ebe6 a43d 08ee 2f3d
00000350: 05ad c53c e640 6ebd 31ef 753d b4d4 d6be
00000360: bf68 97bd a490 273d 01b1 efbd 1312 9e3d
00000370: e42e 97bc 9086 95bd 7b04 50bd 6aff d73b
00000380: e519 163e 44a3 6c3c 3875 043e ee4a 6b3d
00000390: a536 83bd 5d0b bdbc 904f 843d b066 88bc
000003a0: f95f 783d 4d1d 983b 4b56 87bd 0b8a b23c
000003b0: 8c2f 4e3d 2bf9 163d d0dd 273d 5f7b 17be
000003c0: 5cd9 f43d a8da d8bd eedb e93d 72ea 8a3d
000003d0: 1da6 aebd f361 27be 1978 883d 08df b93d
000003e0: 49a6 b93d 2f51 4bbd 1f5f 8bbd c128 b03d
000003f0: 549a 35bd 3547 c63d 5aaf 1d3e 89e7 8bbd
0.10266835 -0.14709605 0.0718596 -0.02903475 0.09142995 0.07537437 -0.18274514 -0.09789868
0.11013643 -0.024224924 0.0141462665 -0.033442583 -0.06747558 -0.012498848 0.081174314 -0.08913765
0.11660827 0.013494527 0.046528626 0.011532226 0.077182285 0.117959484 0.12101259 -0.13242397
0.16320716 0.17242707 0.054656573 0.1815495 -0.06602055 -0.05524743 0.090294175 -0.031068193
-0.053458057 0.020239877 -0.017089896 0.19958386 0.11223062 0.08060792 -0.13893536 -0.12383805
-0.027885733 0.041081008 -0.054493073 -0.0073951427 -0.017452605 0.102550454 0.026548248 -0.124153
-0.10822135 -0.11469332 0.14918716 0.07082878 0.07926687 -0.13726176 0.018411186 0.0073148017
-0.0010459006 -0.1568691 0.115349874 0.20050314 -0.0006864417 -0.07627891 -0.058956362 0.09321992
0.040797632 -0.23837568 0.10410866 0.055456422 0.06227589 -0.11796064 -0.25844032 -0.08436656
0.40055543 -0.044340767 -0.28422645 0.051066533 0.050319 0.12686352 0.0336759 0.10456305
-0.11796148 0.021000266 0.035543825 -0.089638 0.03494856 -0.111329354 0.049831588 0.23858172
-0.015697753 -0.08506577 0.16075553 0.09339131 0.05504687 -0.033464756 0.018335449 -0.18517613
-0.11308265 -0.11454365 -0.06666887 0.10639206 0.15990537 -0.0039699012 -0.047859065 0.09071016
-0.25798407 -0.20157504 -0.16615014 0.039687723 0.10830912 -0.07013837 0.39060208 -0.040534005
0.019255592 -0.05396138 -0.038609054 0.0946579 -0.054497473 -0.050254375 -0.0073790923 -0.08059649
-0.020706903 0.1586004 0.41199437 4.0487073e-05 0.028031394 -0.08807478 -0.22176619 -0.07199317
0.02615832 0.0132261375 0.09297418 0.0005738912 0.047843054 0.018596983 -0.13976243 -0.22683154
0.047989156 -0.019596603 -0.15030043 -0.1895854 -0.14708039 -0.055534996 0.027044307 -0.01974555
0.23266491 -0.034030017 -0.062809154 0.19012408 0.07903393 0.016542602 0.053104732 0.03815868
0.12155778 0.120561086 0.20245644 0.14582461 0.018848658 -0.14544989 0.06549632 0.02882352
0.12526813 0.110959485 -0.15593271 0.17295946 -0.011480741 0.06720179 -0.09044281 -0.009418353
0.12191778 -0.14791283 -0.11706879 -0.05046645 0.07195927 0.4463227 0.060230047 0.05247888
-0.105596 -0.029597523 0.18860322 0.10755103 -0.07849739 0.1770624 0.16781826 -0.15079859
-0.14390384 -0.08357364 -0.12745678 0.15324171 0.03409717 -0.11279943 0.033710316 0.09822433
0.18332003 0.007507532 -0.0863089 -0.0072662863 0.14217885 -0.09277946 -0.07285581 0.18994717
-0.20153582 -0.18162002 -0.03283082 -0.10212721 0.090563275 -0.06892093 0.07614577 -0.073997065
0.07277825 -0.10102609 0.080518566 0.042951614 0.024130354 -0.05816736 0.060042564 -0.41959155
-0.073930256 0.040909424 -0.11703683 0.07718291 -0.018454976 -0.073010564 -0.050785523 0.006591727
0.14658315 0.014443222 0.1293534 0.057444505 -0.06406907 -0.023076707 0.06460488 -0.016650528
0.0606384 0.004642165 -0.06608256 0.02179434 0.050338313 0.03685872 0.04098302 -0.14793156
0.119555205 -0.1058858 0.114189014 0.06782998 -0.08527777 -0.16345958 0.06663532 0.09075743
0.090649195 -0.04963797 -0.06805252 0.08601523 -0.044336632 0.096815504 0.15398923 -0.06831271

lstm.weight_hh_l1 f4 [256, 64]
00000000: fe6c bcbd 64ce 1b3d 6df9 933d aba8 cabc
00000010: 4acf 0b3e 40c3 9f3c d800 a53d 9656 aabc
00000020: 8485 263e 2797 09be 5070 7b3d 379b 00be
00000030: 79b5 1cbe b934 07bd f521 93bc 9c65 89bc
00000040: e9b4 93ba 1c0f 2dbe d7e9 753d 0876 f8bc
00000050: 2ae0 adbd 23ea 9bbd 1256 49bd 0f0f a53b
00000060: 7fd2 97bd 53bb 3cbe ee71 bebd 548d 0c3d
00000070: 62a0 4a3d 5ba4 2fbe 9483 6c3d 0ffe 04be
00000080: 4e7b 98bd c2db d43c d3ef c7bd ab94 23be
00000090: a859 603e ff52 093e 89b0 16be c102 0dbe
000000a0: b49a 86bd 64b1 563a ebc3 b5bd 03a8 40be
000000b0: 08c7 3cbe ecab 23bd d67b 8dbd fec1 ecbc
000000c0: 8c07 febc 9083 133d a4af 293e e981 a03d
000000d0: 03bd 683b cc18 d9bd 6855 31bc 7d81 193d
000000e0: 1285 773a 700d afbd 3f27 0c3b c853 b4bd
000000f0: 950c 533e 374b 1a3d 55c0 c93d d537 123c
00000100: 8286 123c 03be 15be 1d60 64bd 0410 37be
00000110: ae9a 28be 3067 00be 708d 2fbe d2db 21be
00000120: 0525 66bb 1ac1 4a3d e1b5 25be e91c 053e
00000130: c375 293e 0187 edbc abc5 2cbe 0c93 21be
00000140: d2e5 bebb dbd1 333e 8487 bebc 69fd 59be
00000150: 9f78 ae3d 6120 343d 8eeb 41be e390 0d3d
00000160: cc27 d43d 4345 6cbc ddd6 383e 3b42 cb3d
00000170: f4eb 0e3e 44bc fd3d 461d 11be 5fb4 5b3e
00000180: 5b0a 17bd be09 3d3e 4bbc 193e 4a29 f23b
00000190: 4886 213e 3c59 e2bd 1624 bc3d ae02 0c3e
000001a0: 4f6a 0abe 088d 0cbe 755b e7bd 99a5 5e3c
000001b0: 217a 7f3d 989b 183b 3046 f53d a417 2cbd
000001c0: 3c82 12be 1c71 b0bd e2f2 f3bb 75d0 023e
000001d0: 5031 363d 8b9b 0a3c f8c8 2f3c 9978 203d
000001e0: 7e3b 343e 600d 873c 15a9 b83a a084 053e
000001f0: a4c8 02be e61f 22be f6c0 45bd 3ead f3bd
00000200: ed16 57bc 23fa 82bd 7de7 c53d e20e 6abd
00000210: 4390 edbc 86c4 48bd 88e1 1f3e 0023 523d
00000220: 5840 2c3e 38c8 26be d1bc 5abc be8e 89bd
00000230: 5534 08bd a68a c3bd 3234 08bd 934a ae3d
00000240: 1b75 6e3c b348 3dbd d9bd a1bd 8a76 e33d
00000250: 994f 84bd 865b 9f3d d45b 543d 12d3 13be
00000260: e868 e33b 7d2f 863c 82a2 ca3c d6cd 57bc
00000270: c439 92bc 37bb 45bc bd93 803d 0019 4fbd
00000280: 015f 98bd cd05 9a3d 0750 84bd a05c e0bd
00000290: 4189 bf3c a11c 34bc fb86 2fbe e01d 99bd
000002a0: 7cc5 e33d 4c48 91bb 740b f9bc 9435 2c3d
000002b0: 8e69 43bd 7a7e afbd 3755 fabd e4b5 42bd
000002c0: d584 4d3e 91f3 fd3d 3962 1e3e c1a0 d03d
000002d0: 2635 2b3e 9a15 abbd c6d3 2e3e 6b55 23bd
000002e0: e32c 57bd dbbf b8bd d113 55be 48ac 98bd
000002f0: 6697 e43d d6b9 983d 3d14 4f3e ddd9 383c
00000300: f058 f13d d9a9 c3bd ecf0 243e b266 21bd
00000310: dd3c 23bd 433f fc3d 7fda 913d 8849 423d
00000320: 5133 133e 6673 03be 25ab a73c db15 07be
00000330: 7d4b 2bbe 2b25 9bbb 55fb a9bb c4f0 1c3e
00000340: e54f 333e e94b 443d 0e21 23be 5973 00be
00000350: 3b75 013e 161d 163e 568d c63d 3a31 d3bd
00000360: 6bde d8bd bd31 acbd 2073 cbbd e721 21be
00000370: d909 88bd 22d1 00bc 26c0 913d 1d53 a0bd
00000380: 4efc 203e ea93 ad3d 137b ac3d b635 18be
00000390: f396 103e 60c3 973d 6595 34be 3bcb 353d
000003a0: df7a dd3d 3402 0b3e 0467 8c3d 4779 3f3d
000003b0: 105e 97bc f88a 853d f77a 37bc 47e3 74bd
000003c0: e6aa 6d3d 7e36 c73d 05a5 293e c17b f43c
000003d0: 8792 e7b9 b2fd a03d 835e 043e 2128 523d
000003e0: 55e4 0fbe 4af5 933d e7f3 04bd fd9a 29bd
000003f0: fc15 ea3d cc2b 83bb c25f 323d 2fce ce3d
-0.09200476 0.038038626 0.072253086 -0.02473863 0.13653293 0.019502282 0.080568016 -0.02079324
0.1626187 -0.13436566 0.061386406 -0.1255921 -0.15303601 -0.033009265 -0.017960528 -0.016772084
-0.0011269125 -0.16900295 0.06003746 -0.03032972 -0.084900215 -0.076130174 -0.04915435 0.0050371955
-0.07413196 -0.18430834 -0.09299074 0.03431447 0.04946936 -0.1715254 0.05774267 -0.1298754
-0.074453935 0.025983695 -0.0976254 -0.15974681 0.21909201 0.13410567 -0.1471578 -0.13770582
-0.06572476 0.00081898854 -0.08875259 -0.18814091 -0.184353 -0.03995888 -0.069083855 -0.028901096
-0.031009458 0.03601414 0.16570908 0.078372784 0.003551305 -0.10600433 -0.010823585 0.037477005
0.0009442131 -0.08547485 0.0021385697 -0.088050425 0.20610268 0.037669387 0.098511375 0.008924444
0.008943202 -0.14623265 -0.055755723 -0.17877203 -0.16465256 -0.12539363 -0.17143798 -0.15806511
-0.003511728 0.049500562 -0.16182663 0.1299931 0.16548829 -0.028995039 -0.1687228 -0.1577875
-0.0058257366 0.17560522 -0.023257978 -0.21288075 0.085191004 0.04397619 -0.18937513 0.034562003
0.10359153 -0.01442081 0.18050714 0.09924742 0.13957196 0.123894244 -0.14171323 0.21455525
-0.03687511 0.18460748 0.15013234 0.007390176 0.1577388 -0.11052176 0.0918657 0.13672897
-0.13517116 -0.13725674 -0.11296741 0.013589286 0.06237233 0.00232861 0.11976278 -0.042014733
-0.14307493 -0.08615324 -0.0074447254 0.12774833 0.04448062 0.008459936 0.010729067 0.03917751
0.1760082 0.01648587 0.0014088476 0.13038874 -0.12771851 -0.15832481 -0.048279725 -0.11898278
-0.0131280245 -0.06395366 0.096632935 -0.0571431 -0.028999453 -0.049015544 0.15613377 0.05130291
0.1682142 -0.16287315 -0.013350681 -0.06716679 -0.033253033 -0.095479295 -0.033252902 0.08510318
0.014554287 -0.04621191 -0.07897539 0.11106594 -0.064604945 0.077811286 0.051845387 -0.14435986
0.006939996 0.016380066 0.024735693 -0.013171634 -0.01784981 -0.012068561 0.06278179 -0.05056095
-0.074399956 0.07520638 -0.064605765 -0.10955167 0.023380877 -0.010993154 -0.17141335 -0.07476401
0.111216515 -0.0044336673 -0.03040097 0.042043284 -0.047708087 -0.08569045 -0.12223285 -0.047536746
0.20070203 0.12399972 0.15467156 0.101869114 0.16719493 -0.083537295 0.17072973 -0.039876383
-0.05253304 -0.090209685 -0.2080834 -0.07454735 0.111616895 0.074573204 0.20222564 0.011282411
0.117845416 -0.0955388 0.1610753 -0.03940458 -0.039852966 0.12316754 0.07121753 0.047433406
0.14375044 -0.1283699 0.02046735 -0.13191931 -0.16728015 -0.0047346554 -0.005187432 0.1532622
0.17510946 0.047923956 -0.15930578 -0.12544002 0.12642376 0.14659533 0.096949264 -0.103121236
-0.10589298 -0.08407924 -0.09934068 -0.15735589 -0.06642503 -0.007862361 0.071167275 -0.078283526
0.15721247 0.08475478 0.08421912 -0.14864239 0.14120083 0.07410312 -0.17635114 0.04438327
0.108144514 0.13575059 0.06855586 0.04674652 -0.01847747 0.06520647 -0.011198751 -0.05978706
0.05802431 0.097271904 0.16566856 0.029844167 -0.00044168925 0.078608885 0.12926678 0.0513078
-0.14051946 0.072245196 -0.032459166 -0.041407574 0.114299744 -0.0040030237 0.043548353 0.1009792

lstm.bias_ih_l1 f4 [256]
00000000: d164 1b3e ca3f b63d a3e7 1b3d 285a e23c
00000010: 7cf9 0abd 01b6 f33d 46f8 ad3d 23ab 9f3d
00000020: 7f01 88bd 3d0f 5dbc 4918 d83d e39c 183d
00000030: 02a2 333c bc74 d1bd 8f76 8f3d db12 6d3d
00000040: f26a a43d bbe7 babc 0e4a 04be 75ca 843d
00000050: 090b a9bb fb1f 3dbd a0d2 d5bd 54ef 213e
00000060: 4c80 7bbb 8fa3 fcbc 6c9b 00bd 0678 0fbd
00000070: 4a01 b43c de65 e13c 1727 0e3e 6b60 edbd
00000080: c282 50bd 7c4c 62bd 381b e9bc a5ed 423d
00000090: 9ef5 133d 36b9 7dbd 3b36 513e 0b51 1dbe
000000a0: 4616 f7bb faf2 91bd 1c51 78bd 6314 993d
000000b0: 355f 24bd 7dfe 233c b76c 273e dd96 b3bc
000000c0: 24a8 9a3d e84b ce3d 4909 29bc a5e2 1dbe
000000d0: 435b 42bd d4c2 573d 1ff0 43be a878 793d
000000e0: 810a 1cbd 2914 f7bd c3e9 1fbd 34f3 ccbd
000000f0: 16f4 9a3c 53e2 503e cf32 043e 36ab c43d
00000100: df20 fc3d c9f9 013e 2687 b43d 9000 b53d
00000110: e945 94bd 738d acbd 4da1 ba3d a1e7 cebd
00000120: eb81 e13d 8219 143e 05e9 0b3d 7ead 1f3d
00000130: 7c36 afbd 9b66 873b a899 bd3d 7415 043c
00000140: 98b9 023e ba45 653d 9ace cd3d c46b 6b3d
00000150: 0122 173d f50f ab3d 6bea 08bd 7b07 b4bb
00000160: e9aa 68bc 004e 59ba 521e 99ba 2b70 60bd
00000170: 5139 f93c fb9e 00bd f998 eb3d a411 e73c
00000180: 0507 6dbd b32c 8e3d 7f9b 423d 83f9 a2bd
00000190: 1d34 4b3e 666e 93bd 5f9e ed3d d371 b8bc
000001a0: bda8 843d eb8b e13d 5aa7 dc3d b021 b0bd
000001b0: 4057 42bb 9589 cc3d d8e1 e83d 0dd8 d03c
000001c0: dd85 c13b 1755 40bd 70f5 ad3d d368 de3d
000001d0: 46b2 d43d 8d9c 2d3e 54ce c4bc 39cf 9bbc
000001e0: eba2 f63b cac0 dfbb 6146 043a 81b4 043e
000001f0: 00f9 a33d a64d d13d 0812 5ebd cb10 edbd
00000200: e6c2 c9bd 64d8 a43d 7f24 3e3c 409f b53d
00000210: ef8f dd3d 8d70 013c 8d52 02bd c0b1 a23d
00000220: 592d 0cbd 1489 fcbb 0eae 6b3d cd2e 0fbe
00000230: 4fef 01be df58 033e 7952 1b3d 255f 24bd
00000240: f446 a13d 3e7d bd3d b5be 81bc ad68 23bd
00000250: f638 1b3e 2717 80bd 7eab 4abd 4817 423d
00000260: a2df f1bd 156d 923d ba61 eabd 435a 92bd
00000270: 7dc1 d73d b66c 3cbd 890f aebd 4191 2abc
00000280: b47e 573d a4f8 343d 92fe 823d afbf 963b
00000290: c117 db3c 839f b4bd 5222 ceba eda6 52bc
000002a0: 7c37 063e 4dce dcbd 2e52 913d 7665 433d
000002b0: f080 70bd fdab 0abe af62 e8bd 7a16 c83d
000002c0: 9a2c 1d3d bc07 44bd 2978 943d 1227 df3d
000002d0: 19f0 803d b134 b2bd 05da 97bd 9164 0dbe
000002e0: 4901 9cbd ba40 d9bd 3c7c cdbb 2d03 713d
000002f0: 0565 773d b867 0fbe c724 b73d bde0 7d3d
00000300: 8a61 013e b1e9 adbc 3949 093e a5f3 4f3c
00000310: 11ee 4f3c 4e9a 95bd 0c46 32bc 1642 09bd
00000320: 94a1 f03d 8e0e d63d fc5a 3fbc 0512 c43d
00000330: 87e5 34bd 5932 2e3e 0365 29bd 2b61 54bd
00000340: a30c 913d 2650 23bc 26f9 76bd 5d2e 3f3d
00000350: 3888 1a3d 0128 103e 186c cb3d 23a9 4ebd
00000360: 7d9f 803d 6d8c 3e3b 78cc 2fbb 7670 163e
00000370: 43d3 a33b 8199 083e 2109 2ebd 8606 cb3d
00000380: 5cc3 1bbc 113c e13d 6056 793d 9f4d 303a
00000390: 3aaf 483e fb24 4abd f6bc 35bd b001 df3d
000003a0: 36f9 463e 1242 8bbc dbb8 fe3d 1a03 a73d
000003b0: eaf4 cb3d c8d7 103d ec63 113e 372e 243e
000003c0: 2834 383e 4ddb 173e 8b16 003e 54ba 6ebd
000003d0: bc5c 413d cb76 f43b 443c a4bb 9313 db3d
000003e0: ee02 24bd 55cb f5bc 8fab 86bc a238 353e
000003f0: 43d1 3b3e e4d5 383e 9b9a f93d b3fc 05bc
0.15175177 0.088988855 0.038062703 0.02763088 -0.033929333 0.11899949 0.0849462 0.077963136
-0.0664091 -0.013492403 0.10551507 0.037258994 0.010963919 -0.102273434 0.07005035 0.05787931
0.08028211 -0.022815576 -0.12918875 0.06483928 -0.005158786 -0.046173077 -0.10440564 0.15813953
-0.0038376031 -0.03083971 -0.03139822 -0.035026573 0.02197327 0.027514394 0.13882099 -0.11590656
-0.05090595 -0.055248722 -0.028455362 0.047589917 0.03612291 -0.06194421 0.20430844 -0.15362947
-0.007540497 -0.07126422 -0.060624227 0.074745916 -0.04012986 0.010009405 0.16350065 -0.021922523
0.075516015 0.10073072 -0.010317155 -0.1541849 -0.047450315 0.052676037 -0.19134568 0.060906082
-0.038095955 -0.12064392 -0.039041292 -0.10007325 0.018915217 0.20398836 0.12910007 0.096029684
0.12310957 0.12692942 0.0881484 0.08837998 -0.07239897 -0.08425417 0.09112797 -0.101027735
0.11011108 0.14462855 0.03415777 0.038983814 -0.08555314 0.0041321046 0.09257823 0.008061755
0.12766111 0.0559747 0.10049172 0.05747582 0.036897663 0.08352653 -0.033426683 -0.005494056
-0.014200904 -0.0008289516 -0.001168201 -0.05479447 0.030422838 -0.031401616 0.115037866 0.028206654
-0.057868022 0.069421194 0.047511574 -0.07957747 0.19844098 -0.07198791 0.116024725 -0.022515213
0.06477497 0.11013015 0.10774107 -0.086001754 -0.0029654056 0.09987179 0.11371201 0.025493646
0.0059058503 -0.046956148 0.08494079 0.108598374 0.103855655 0.1695425 -0.024024166 -0.01901971
0.0075267456 -0.006828402 0.00050458877 0.12959482 0.08006477 0.102198884 -0.054216415 -0.11575469
-0.09851627 0.08049086 0.011605381 0.08868265 0.10818469 0.007900369 -0.031817008 0.07944059
-0.034222934 -0.0077067707 0.05753904 -0.13982697 -0.12688945 0.1282687 0.03792045 -0.0401298
0.07874861 0.09252404 -0.015838007 -0.03989475 0.15158448 -0.06254416 -0.049479954 0.047385484
-0.11810233 0.07149712 -0.11444421 -0.07146122 0.10534952 -0.046002112 -0.08499057 -0.010410608
0.052611068 0.044182435 0.06396212 0.004600487 0.026744725 -0.08819487 -0.0015726781 -0.012857181
0.13107103 -0.10781536 0.07095753 0.047704183 -0.058716714 -0.13542171 -0.113469474 0.09769912
0.038372613 -0.04785894 0.07249481 0.10896124 0.06295795 -0.08701456 -0.07414631 -0.13807894
-0.076174326 -0.10608049 -0.0062709134 0.05884092 0.060399074 -0.1400441 0.089425616 0.061981905
0.12634864 -0.021229597 0.13406838 0.012692367 0.012691037 -0.07304822 -0.010880958 -0.03351029
0.117495686 0.10451995 -0.011679407 0.095737495 -0.044164207 0.17011394 -0.041356098 -0.05185048
0.070824884 -0.009967839 -0.0602962 0.046675075 0.037727565 0.1407776 0.099327266 -0.05045427
0.0628042 0.00290754 -0.0026824754 0.14691338 0.0049995496 0.13339807 -0.042489175 0.099133536
-0.0095070265 0.10997785 0.06087339 0.00067254336 0.19598094 -0.049351674 -0.04436966 0.10888994
0.19431004 -0.016999278 0.12437602 0.081548885 0.09958823 0.035362035 0.14198273 0.16033255
0.17988646 0.1482975 0.125086 -0.058283165 0.04720758 0.0074604503 -0.005012067 0.10697093
-0.040041856 -0.030004183 -0.016439227 0.17697385 0.18341546 0.18050343 0.12187692 -0.008177924

lstm.bias_hh_l1 f4 [256]
00000000: 6b02 1e3e 43bc cfb9 321f 5e3e 3fc9 cebd
00000010: 0e69 f33d 85b4 53bd 5d58 f33c eeda 0cbb
00000020: c6f8 b33c e18a 2a3e 8ced 15bd 2246 203d
00000030: cfef d5bc 1d4a 08bd 56bf 9c3c 7cd2 a3bd
00000040: 7818 923d afac ab3d 1775 bc3d 1d1a e6bd
00000050: 3def dd3c 724e 0f3e 37b3 813d 2ecc ba3d
00000060: e569 dd3d 995f 07be 6fc9 d03c efc2 b1bd
00000070: 02da d43b 3703 88bd 7510 b2bb 209f 9d3d
00000080: 53fc 16bd 68a3 8bbd 55b4 153d 8d2b 22bd
00000090: a77d c83d 194f 31bd 8fc5 e13d 1cfa e8bd
000000a0: f69b e1bc 99f3 d53c ff0d 3abc dab5 6d3d
000000b0: 83e5 d4bd 8d23 a13d 8064 3c3e 23c0 20be
000000c0: c92b 4abc f33d 073c b80f 163e 1a36 35be
000000d0: 650f 9d3d 7eaf a23d 7012 05bc 2ce3 b23d
000000e0: ff02 77bc 112c c1bd 3cfd 1d3d 489f 01bc
000000f0: 8c02 cdbd 75a2 ed3a f887 c93b ffcd 04ba
00000100: bdca 48bd 40c2 163e fe99 183c d75a adbd
00000110: d320 db3d 1a2c 263d 3764 083e 879b c7bd
00000120: cd05 183e 5c81 ab3d 50ba 6b3e ea64 0e3e
00000130: bfab 323d 3958 433e bdf0 053d 08f5 be3d
00000140: f3f2 cf3d 3155 cfbc 4eaa 953c 8efc 2cbd
00000150: faff 283e 3dcf 0e3d 187e c2bd 9dbc 0f3e
00000160: 0c91 f53c 3db7 c6bd c625 bc3b 12e7 983d
00000170: 4380 bcbd 6c1f aabd 7dbf 8cbd e272 103e
00000180: 8186 af3d 0411 803d e29e e53d 750c 413c
00000190: d6ed 3f3e 5b05 833d ad0f 3e3e 152a 31bc
000001a0: 5e16 013d 945f 6e3d 35b8 363d f9ac 83bc
000001b0: 7282 163e 627f 173e 6adf 8f3d ed89 1a3d
000001c0: 1564 e339 1eda 8c3d 534d 8abd 234d 13bd
000001d0: 942f 6a3d 08ab 93bd e74a 0a3e b09b 973d
000001e0: 91b7 af3d f64a 843d 12b7 f93d 32c7 633d
000001f0: 5573 073e 9d79 ddbc 39ba be3d e125 9cbd
00000200: 250d 68bd 8ef4 6c3d dc95 8ebd ce16 d23d
00000210: e21a 7dbd 9d2e ba3d f253 05bc 8906 0d3e
00000220: 45fb b93d 0d74 223d 465d 683d b358 be3b
00000230: 7b96 173d 40a1 23bc 267a f53d 0dec 0f3e
00000240: aa4d 993d 5943 80bc 1c27 42ba cab7 103d
00000250: 0deb 823d da35 b03d 6b60 65bd 8e87 98bd
00000260: 04b1 843d b9f2 fabd 4b0c e73d 3529 bd3d
00000270: d8cd a23d ee1b 983d 8b06 883d da3f a23c
00000280: 0533 b5bd 740c 3abd 06d8 11be 772b 343d
00000290: 4135 8cbc 4c16 c23c 4419 ffbc de20 22bd
000002a0: 2805 673d e2a4 523d 2744 e93d b0b3 943b
000002b0: ace1 c3bd 9460 183d 3599 f6bd 397d 8fbd
000002c0: 47a3 a3bd 8920 e0bd 23b2 e23d d9eb 2a3c
000002d0: 9816 a23d 88fc 4cbd 0b76 37bd 1e17 c83d
000002e0: dec7 4d3d 6c1f 82bd 85ed c73c 3fcd 053e
000002f0: 98bc 98bd 4ca0 8a3d 4800 aa3c 908c 963d
00000300: 38ba 133e 46b5 dc3d 7fe9 453d 7969 0a3d
00000310: d10d e8bb ad77 9ebb 81d9 4f3d 1f07 1bbd
00000320: ba34 8e3d d93b 9a3b 357b 853d 7955 063e
00000330: 4c40 383e 7cda 913b 0f09 21bd 23b3 82bd
00000340: c53a 893d d57b 0ebd 5bd8 9e3b d84b 273e
00000350: afc7 353d 857c e03d 49d8 323e aaf8 7ebd
00000360: 5812 823c 854d ce3d c5ea 133e c59e 8e3d
00000370: e516 29bc 35fb 1e3d 4b6a 943d 2f86 913b
00000380: 08cd 5f3d 7819 223e c79d 8f3d 335f 0e3e
00000390: bf92 073e 6eab 293e 4c7a 59bc c40c c93d
000003a0: f7f6 773d f543 773d f7c1 973d 66e6 293d
000003b0: 8468 fdbc 709c 0a3e ea02 77bd 6430 06bc
000003c0: 0d01 8bbc 602a 223d cdf9 2e3e 2408 6cbb
000003d0: 40e0 ba3d d3a2 c4bc 6e46 debc b7a6 d73d
000003e0: e518 c7ba f368 3dbd 4525 1a3d 1877 6bbd
000003f0: 7371 3fbc 6ab1 173e 8bef 6abd b8e0 3dbd
0.1543061 -0.00039622383 0.21691588 -0.100969784 0.11885272 -0.05168583 0.02970522 -0.0021492797
0.02196921 0.1665454 -0.036603495 0.039129384 -0.026115326 -0.033273805 0.019134205 -0.07999131
0.07133573 0.08382546 0.092020206 -0.112354495 0.027091617 0.13994768 0.06333011 0.091209754
0.108112134 -0.13220061 0.025486676 -0.08679759 0.006495715 -0.06641238 -0.0054340907 0.07696366
-0.03686173 -0.06818277 0.03654893 -0.039592315 0.09789591 -0.043288324 0.110240094 -0.113758296
-0.027540188 0.026117133 -0.011355876 0.058034755 -0.103953384 0.07868109 0.18397713 -0.15698294
-0.012339541 0.008254516 0.14654434 -0.1769642 0.07668952 0.07943629 -0.008122072 0.08734736
-0.015076398 -0.09432233 0.03857158 -0.007911511 -0.100102514 0.0018130081 0.006150242 -0.0005066096
-0.04902147 0.14722538 0.009314058 -0.08464592 0.1069962 0.040569402 0.13319479 -0.09746461
0.14845963 0.08374283 0.23020291 0.13905683 0.04362082 0.19076623 0.03270029 0.0932408
0.10153761 -0.025309177 0.018269684 -0.042233042 0.16503897 0.034865607 -0.09496707 0.14036794
0.02997639 -0.09702919 0.0057418076 0.07465948 -0.092041515 -0.083067745 -0.06872461 0.14106324
0.085705765 0.062532455 0.11211945 0.011782755 0.18743071 0.06397506 0.18560667 -0.010813256
0.03151547 0.05819662 0.044609267 -0.01607369 0.14698198 0.14794686 0.07025035 0.037729193
0.0004337138 0.0687754 -0.0675303 -0.035962235 0.05717428 -0.07210356 0.13505135 0.07402742
0.085799344 0.0645961 0.12193121 0.05560989 0.1322759 -0.027035529 0.09312863 -0.07624412
-0.05665316 0.057850413 -0.06962177 0.10258256 -0.061793216 0.09090922 -0.00813769 0.13772024
0.09081129 0.039661456 0.056729577 0.0058089136 0.037008744 -0.009987175 0.119861886 0.1405489
0.07485516 -0.015657114 -0.00074063404 0.035331525 0.06392489 0.08604021 -0.056000154 -0.0744773
0.064790756 -0.12253327 0.112816416 0.09236375 0.07949418 0.07427202 0.06641873 0.019805837
-0.08847622 -0.045422032 -0.14242563 0.043986764 -0.017115237 0.023692273 -0.031139977 -0.039582126
0.0564014 0.051426776 0.11389952 0.004538022 -0.09564528 0.03720148 -0.12040941 -0.07006306
-0.07990127 -0.109437056 0.11069133 0.010432207 0.07914466 -0.05004552 -0.04479031 0.09770034
0.050239436 -0.063536495 0.02440525 0.13066576 -0.074578464 0.067688555 0.020752087 0.07351029
0.14426506 0.10776763 0.048318382 0.033791993 -0.007081725 -0.004836044 0.050744537 -0.037848588
0.069436505 0.0047068414 0.065176405 0.13118543 0.17993277 0.004451094 -0.03931528 -0.06381824
0.067006625 -0.034786064 0.004847569 0.16337526 0.044379886 0.1096125 0.17465319 -0.062248863
0.015877888 0.100733794 0.14445026 0.06963877 -0.0103204 0.03881379 0.07246836 0.0044410448
0.054638892 0.15830028 0.070125155 0.13903503 0.13239573 0.16569301 -0.013273787 0.09816888
0.06053826 0.060367543 0.07410043 0.04147949 -0.030933626 0.13536239 -0.060305513 -0.008190248
-0.016968274 0.039591193 0.17087479 -0.0036015594 0.091248035 -0.024003422 -0.027133193 0.10529845
-0.0015189914 -0.046242665 0.0376332 -0.057486624 -0.011684763 0.14813772 -0.057357352 -0.046356887
